modeling/model/COVID19_binding_affinity.pth (torch_old, 10266 bytes, 7 tensors)

predictor.project.0.weight f4 [32, 5]
000000 4a e3 93 3e 01 e6 ea bb 59 0c b2 3e f6 5c 17 3d
       0.28884345 -0.007168532 0.34775046 0.03695389
000010 db c5 62 3d 9c dc 03 3f 8e 6a 4d 3e 2b 35 38 3d
       0.05536447 0.515085 0.20060179 0.04497258
000020 c9 4e c1 3d 81 a9 b9 3d 5d d6 cc be 05 ac f0 be
       0.09438855 0.090655334 -0.40007296 -0.4700624
000030 2c 67 89 3e 5c 6b 29 3e 81 33 84 be 29 bd c5 3f
       0.26836526 0.1654486 -0.25820544 1.5448352
000040 fb 74 fa 3d 11 9d ef 3d a5 21 43 3e a8 f4 0f 3e
       0.122293435 0.1169988 0.19055803 0.14058173
000050 e7 c3 81 3e c1 c7 11 bd 5b 3f b0 3c de 74 6f 3e
       0.25344774 -0.03559089 0.021514585 0.23384425
000060 44 c8 28 3d fa 28 28 3f d4 93 9c bd db 04 cb 3e
       0.041206613 0.65687525 -0.076453835 0.39652142
000070 b2 3a f3 3d 88 8e 1c be 5c 3b 4c 3c 5c 36 04 be
       0.118764296 -0.15288746 0.012465324 -0.12911361
000080 c3 7f 4e 3d 7d d7 05 c0 fa 09 1c c0 25 bb 41 c0
       0.05041481 -2.0912774 -2.438109 -3.0270474
000090 22 0d 89 bd a8 f2 eb bd c4 f1 88 3e 1c 09 bf bd
       -0.06691958 -0.115208924 0.26746953 -0.09327909
0000a0 1f fd de 3e 67 0b d6 be 78 20 2f 3e 5c 36 38 bd
       0.4355249 -0.41805574 0.1710223 -0.044973716
0000b0 04 32 95 bc e4 46 f8 3d 16 34 e1 bf 22 be 1e bf
       -0.018212326 0.12122896 -1.759402 -0.6200887
0000c0 fc ad ac be 7d d0 27 3e a5 4f 68 be 85 d4 10 3d
       -0.3372649 0.16388126 -0.22686632 0.035358924
0000d0 4a 00 98 3d bf e3 87 bd 49 a6 93 3e f8 0c 40 bf
       0.0742193 -0.06635236 0.28837803 -0.7501979
0000e0 3d 27 9f bd cb 77 95 bf a5 31 5c be ee 85 a6 bf
       -0.07771156 -1.1677183 -0.21503313 -1.3009622
0000f0 47 c7 f6 3e 11 f5 da 3e e0 c2 38 3e 97 05 a7 3c
       0.48198912 0.42765096 0.18043089 0.020388408
000100 b4 a1 19 3d 9a ce b2 3e b3 d0 ce 3c da f3 56 be
       0.037507728 0.3492325 0.025246 -0.2099146
000110 ee 4b a4 3d 88 0e 1e c0 8c 02 b4 bc 61 52 0c be
       0.08022295 -2.469637 -0.02197387 -0.137033
000120 33 88 21 bd 8c e7 06 be 32 f3 02 bd a7 12 30 3d
       -0.03943653 -0.13174266 -0.03197021 0.04298654
000130 e0 8e 2a be 7a 7a bd 3e 6d e5 96 3d 56 22 27 3c
       -0.16656065 0.37007505 0.07367978 0.010201057
000140 f0 82 39 3e 04 dd 63 bd 91 d2 97 3d 87 d6 00 3d
       0.18116355 -0.0556307 0.07413209 0.03145459
000150 ae b7 bf 3d 88 4e b7 be 62 af 8d bd 2b c8 a9 3e
       0.09361206 -0.35802102 -0.06918217 0.3316053
000160 08 3a 92 bd a2 e1 d1 bd 09 49 7f 3f d0 a2 d6 bd
       -0.07139975 -0.10248114 0.9972082 -0.10480273
000170 0a 8a ef 3c e4 5d 8e be 01 35 92 3e 2f 40 41 3f
       0.029240627 -0.27806008 0.28556064 0.7548856
000180 1a 12 5c 3e 29 58 38 3e 84 93 64 3e 85 c0 06 3e
       0.2149128 0.1800238 0.22321898 0.13159378
000190 a1 69 10 3e 18 ac c9 be 16 7e 62 3e d6 0b 4d be
       0.14102794 -0.3938911 0.2211841 -0.20024046
0001a0 79 48 cd 3d 6f d3 a0 c0 d8 f8 c4 bd 01 1a b3 bc
       0.10023589 -5.02581 -0.09617776 -0.021862986
0001b0 bd a4 bd bf 4f 3f 92 3d 6e 74 5c 3e cb 47 ff bd
       -1.4815899 0.071409814 0.2152879 -0.12464865
0001c0 69 ee f7 3e dc b6 9d bc 14 71 a4 ba 53 03 9a 3e
       0.4842408 -0.019252233 -0.0012545907 0.3008066
0001d0 f2 f5 e3 bc 6d ba 91 bf 4a 52 3c 3e 7f 76 f7 bd
       -0.027827237 -1.1385018 0.18390766 -0.12083148
0001e0 7e f4 96 bd fb 99 cb 3d 48 47 3e 3e f8 97 6c bd
       -0.07370852 0.09941479 0.18581879 -0.057762116
0001f0 7f 2c 56 bc 35 7a 3b 3e ed 41 1a bf 86 80 a5 3e
       -0.013072132 0.18308337 -0.60256845 0.32324618
000200 32 76 ce bc 11 b1 a1 3d b1 1b 00 bf 18 5a 5c 3e
       -0.025202844 0.07895101 -0.50042254 0.21518743
000210 d8 30 8c be c8 96 b8 bc bd 65 82 3e 9e 3c 97 3f
       -0.27381015 -0.022532836 0.25468245 1.1815374
000220 82 10 71 bd e0 9f 82 3e 25 e2 10 3e 2f 52 71 3d
       -0.058853634 0.255126 0.14148767 0.058916267
000230 4a 3a f5 3e 29 51 34 3e e6 ca da 3d bd cd 96 3d
       0.47896034 0.17609085 0.10683231 0.0736346
000240 60 79 90 bd 52 8f 0f be 1d 63 38 be 4d 06 f0 3e
       -0.070544004 -0.14019516 -0.18006559 0.46879807
000250 87 71 f2 3b f8 87 79 3e f4 e7 7d 3f b8 0f 10 3e
       0.0073987874 0.24368274 0.9918206 0.14068496
000260 60 eb 2f be 78 97 17 3e 55 ef b0 bc ea 70 6b 3e
       -0.17179632 0.14803874 -0.021598497 0.22992292
000270 0e 02 02 3e 25 72 b3 be b9 2b 47 bf 76 25 17 38
       0.12696096 -0.35048023 -0.7780109 3.6036094e-05

predictor.project.0.bias f4 [32]
000000 32 5e 26 bf 53 5d 37 bf 09 18 62 bd f6 52 9d be
       -0.6498748 -0.71626776 -0.055198703 -0.30727357
000010 06 3c a7 3b fe 5f 8e be 82 82 b1 3e 16 e8 e3 3e
       0.005103591 -0.2780761 0.34669882 0.44513005
000020 ae 67 bb 3c 11 06 fa be f0 aa 34 3e de cc 1b 3e
       0.022876587 -0.48832753 0.17643332 0.1521487
000030 0a 5f 33 3c 22 1e a4 3e 80 4f da bb d2 ff 8e 3e
       0.010947952 0.3205424 -0.006662309 0.2792955
000040 66 1d cb 3b ab 96 0e 3f 7c c5 50 3e c9 46 b4 be
       0.006198573 0.5569865 0.20387834 -0.35210255
000050 07 94 fe bd 4c 3d b1 3e 1f 31 ad 3e 97 94 a0 3e
       -0.12430578 0.34617078 0.3382654 0.31363365
000060 0a 93 02 3f e7 32 a5 3d ab 04 ea be 8c b9 ee be
       0.51005614 0.080663495 -0.45706686 -0.46625936
000070 69 e8 dc be 1f f7 9c 3e ce 84 28 be 23 56 c4 be
       -0.43146065 0.30657288 -0.16456911 -0.38346967

predictor.project.3.weight f4 [32, 32]
000000 0d 52 05 be 94 9d 15 be 1c d9 04 3e 6c 69 12 be
       -0.13019581 -0.14610893 0.12973446 -0.14298028
000010 a1 62 4f 3e 9d 22 8e bc 35 e5 98 be 32 d3 7a bc
       0.20252468 -0.01735049 -0.2986237 -0.015309142
000020 15 24 a3 3c f2 e0 71 3e e4 1b ba bd 3c 2a fa be
       0.019914666 0.23620966 -0.09087351 -0.48860347
000030 dd a8 0d 3e bf 4b a0 3e dd cb 3a 3e b7 44 fa 3c
       0.13833947 0.3130779 0.1824183 0.030550344
000040 18 10 e7 3d c2 5b 90 3d f6 b4 6e bd 82 a4 63 3e
       0.112823665 0.070487514 -0.058278047 0.22230724
000050 53 5e 9f bd 60 6c f2 be ba d2 89 be 5a e4 3d be
       -0.07781663 -0.4734831 -0.26918584 -0.1854414
000060 74 a0 2a 3b 6e 6e 70 be c2 03 a2 be 74 70 d6 3d
       0.002603558 -0.23479626 -0.31643492 0.104706675
000070 99 ae d3 bd fb 1e bc bd cb ba 26 be b9 23 15 bd
       -0.10336036 -0.091855966 -0.16282193 -0.03641102
000080 0a 5c 97 bd 99 83 43 be d6 ce 9b 3e 09 be 3c bf
       -0.07390602 -0.1909317 0.3043124 -0.7372747
000090 91 f6 29 bf b5 c4 e6 bc c2 53 07 bf d0 5c d7 bc
       -0.66391855 -0.02816997 -0.5286218 -0.026289374
0000a0 3c 3a da 3e fe f2 43 3e c3 14 d6 bd de 56 ca be
       0.42622554 0.19135663 -0.10453179 -0.395194
0000b0 70 55 42 3e fd 73 9e bc bf 37 03 be 82 91 75 be
       0.18977904 -0.019342417 -0.12814234 -0.23981288
0000c0 bc 2c 26 be 4c 0c 47 3d ec 86 2f be a6 8c b5 be
       -0.16228002 0.04859571 -0.17141312 -0.3545887
0000d0 47 01 41 bf c9 25 b3 3c 4d ea 07 3e 9b 07 b3 bc
       -0.75392574 0.021868603 0.13272972 -0.021854213
0000e0 b3 6f 13 3e 01 fc 02 3e c2 d3 86 be d9 43 c0 be
       0.14398079 0.12791444 -0.26333433 -0.37551764
0000f0 63 db 52 be 49 ca 1e be 01 41 a3 be e9 12 0b bf
       -0.20591502 -0.15506853 -0.31885532 -0.5432573
000100 4c 43 23 bd be a4 0f 3e ee 07 61 3d ab f2 e5 3d
       -0.0398591 0.14027688 0.054939203 0.11227926
000110 c7 e2 b0 3d c7 3f 77 3d 78 68 b5 bd 2f 79 f1 bd
       0.08637004 0.060363557 -0.088578165 -0.11790692
000120 02 eb b9 3d 35 12 0a be f3 43 74 3b de 78 bd 3d
       0.09078027 -0.13483508 0.0037271946 0.09251569
000130 7c 08 54 3e a7 e9 2b be 83 c8 af 3d 99 a0 82 3e
       0.20706362 -0.1678835 0.085831665 0.2551315
000140 f9 c0 84 3d 18 72 c7 3e 62 02 48 be dd 4b 31 be
       0.06482119 0.38954234 -0.19532159 -0.17314096
000150 93 8c db be 4a 1d 6c be c7 50 97 3e 85 0b 8d be
       -0.42880687 -0.23058048 0.29553816 -0.2754785
000160 87 0e 54 3c d4 b3 0a 3e cb dd e4 3d f1 dc 6d 3e
       0.012942917 0.13545161 0.11175116 0.23228814
000170 ce 99 20 3e 6f 48 01 be fa a7 9a bd 70 ad 29 3e
       0.15683672 -0.12625287 -0.0755157 0.16570067
000180 31 fe 82 3e 82 8e fe 3d 2c c7 93 be 4d f9 c9 3d
       0.25584558 0.12429525 -0.28862894 0.098620035
000190 9a c0 61 bc 0d 41 9e bc 52 d8 d7 be 00 fc 83 3d
       -0.01377883 -0.019318128 -0.42157227 0.064445496
0001a0 49 02 e3 be 7e 22 3a bf a7 e0 0c bc e8 c5 b7 3d
       -0.4433768 -0.7270888 -0.008598483 0.089732945
0001b0 d3 81 d1 3e 42 c7 0e be 21 86 18 be 16 93 c2 3d
       0.4091936 -0.13943198 -0.14894916 0.09500711
0001c0 e0 e4 99 3d 09 86 15 3e 12 95 d1 bd 56 e3 01 3d
       0.075143576 0.14601912 -0.10233511 0.031710945
0001d0 17 10 76 be 29 98 52 3e 46 b6 a5 be 40 6e 26 bd
       -0.24029575 0.20565857 -0.32365626 -0.040632486
0001e0 a3 0b 8b 3e e6 cb 6a be 08 7d 56 3d cb b4 0a 3e
       0.27157316 -0.22929344 0.052365333 0.1354553
0001f0 d7 4a 64 3d 89 82 96 ba b6 ae 9c 3d f4 91 30 bf
       0.055735435 -0.0011482994 0.07650511 -0.68972707
000200 92 52 13 be ce d8 89 3e 99 46 0a bf 71 c3 87 bf
       -0.14386967 0.2692322 -0.54013973 -1.0606519
000210 84 ea 39 bf 86 cd 14 bd c6 35 03 bf 82 cf b9 be
       -0.7262347 -0.036328815 -0.51253927 -0.36291128
000220 13 2b bd 3e 99 6a 78 bf c5 b6 57 3d 6e b9 08 bf
       0.36946926 -0.97037655 0.052664537 -0.53407943
000230 d7 60 6c be 39 81 87 be c4 99 31 3e de 54 07 bf
       -0.23083816 -0.26465777 0.17343813 -0.5286387
000240 62 97 54 bf 3a c0 94 bd 5b 42 90 3e 78 7b 88 bf
       -0.8304349 -0.07263227 0.28175625 -1.066268
000250 28 21 35 be 40 98 47 3f d8 c8 32 be 09 e2 c7 3c
       -0.1768843 0.7796669 -0.17459428 0.024399774
000260 0e 09 7e bd 24 90 2f bd 17 22 40 3d 0e d5 c2 bd
       -0.062020354 -0.042862073 0.04690751 -0.09513293
000270 2c 75 0d be dc ab a6 3e 67 0b 79 bd f9 c9 d1 3d
       -0.13814229 0.32552993 -0.06080189 0.10243601
000280 a9 f9 97 3a 8e 68 39 3e 51 53 3c bf ed 42 ff 3d
       0.001159479 0.1810629 -0.7356463 0.12463937
000290 80 e7 8a 3e 39 32 9d bd 46 72 9f bd dd 9a 8d bc
       0.27129745 -0.07675595 -0.07785468 -0.017285759
0002a0 98 74 cf bc 4e 67 83 3e 84 c1 0f be 41 5e e4 3e
       -0.02532415 0.25664753 -0.14038664 0.4460316
0002b0 07 00 3d 3e e3 e2 00 3d df 87 9b 3e 0f e8 c4 be
       0.18457042 0.031466376 0.303771 -0.38458297
0002c0 e0 4b 4d be 06 5e f4 be 5c 80 42 3e 4c eb 93 3d
       -0.20048475 -0.47727984 0.18994278 0.07222614
0002d0 a2 50 55 bf 92 33 05 3e 58 8e a5 bf 1b 69 36 3e
       -0.8332616 0.13007954 -1.2934065 0.17813532
0002e0 80 36 8f bd b6 47 f0 be 2f ad 71 bc 7e 64 7e be
       -0.06992817 -0.4692971 -0.014750763 -0.24843022
0002f0 84 f9 75 3e ac 28 e8 bc 08 35 a0 3e c9 57 6d 3e
       0.24020964 -0.028339706 0.3129046 0.23178019
000300 1f cc 6f 3e 55 f2 4a be 1d ae fe 3e f4 a2 86 3e
       0.2341771 -0.19819005 0.49742213 0.26296198
000310 c0 77 62 3d 4f 0d 67 3e 6c 01 a7 be a0 54 65 be
       0.055289984 0.2256367 -0.32618272 -0.22395563
000320 ed 43 63 3d 69 71 0a bf 9c 5a 79 be 1a 26 8a be
       0.0554847 -0.540793 -0.24350971 -0.26982194
000330 6b 0f ce be d3 ba b5 be 4a 9e 00 be 8d 2f c6 3e
       -0.40246138 -0.35494098 -0.12560382 0.38708153
000340 86 24 f1 bd fb 6e a8 3e cb 92 18 3f f2 6d b7 bd
       -0.117745444 0.3289717 0.5959899 -0.08956517
000350 e3 e1 a7 3e 83 11 71 3d 32 18 25 3e 7a dd be 3e
       0.32789525 0.05885459 0.16122511 0.37278348
000360 a3 53 aa be 9b 28 54 3e 97 67 84 3e 1f 86 48 3e
       -0.33266935 0.20718615 0.25860283 0.19582413
000370 2f ed 34 3e cf e6 18 3e fa 76 f3 3d cd 70 cc be
       0.17668603 0.14931796 0.11887927 -0.3992981
000380 b0 c6 5d bf cb 92 98 3e 10 b5 10 3f 99 c7 35 3d
       -0.866313 0.29799494 0.5652628 0.044379804
000390 b4 51 69 be 11 16 8b be 75 7a f2 3e b4 4d a7 be
       -0.22785074 -0.27165273 0.47359052 -0.3267647
0003a0 57 8f af 3e 47 b0 a6 bd e8 fc 5a be e0 42 ca 3e
       0.34289047 -0.08139091 -0.21385539 0.39504147
0003b0 77 91 26 bd da 8f 52 3e 00 1e 5a bd ba 21 b3 3e
       -0.04066607 0.20562688 -0.053251266 0.3498667
0003c0 fc 0c 41 be 4c d8 2e bf b3 cc 02 3f 4e a8 71 bd
       -0.1885261 -0.6829879 0.51093596 -0.0589984
0003d0 da 6d 98 be 65 3d 30 be 33 82 5d 3e 72 39 08 3f
       -0.2977131 -0.1721092 0.21631698 0.53212655
0003e0 8b 9f 21 bc a6 97 1c be 79 b3 67 3e 6b dc d5 be
       -0.009864698 -0.15292224 0.22627057 -0.41769728
0003f0 ff db 66 be f5 59 cf be db 2d c1 bd 0b e0 f7 3d
       -0.2254486 -0.4049832 -0.09432574 0.1210328

predictor.project.3.bias f4 [32]
000000 8a 9f 30 bc 96 21 88 3e dd da d7 bd af 1e 2d be
       -0.010780225 0.26588124 -0.10539792 -0.16906236
000010 e4 9e 4c 3e 70 fe 17 be 91 e3 7a be 7a be 41 bc
       0.19982487 -0.14843154 -0.24500872 -0.011825198
000020 68 f6 8f 3e b7 86 e7 bd 61 d7 cd bd 18 4e 4f be
       0.2811768 -0.11304992 -0.10050846 -0.20244634
000030 39 3d f5 bd ed b9 0a be 57 21 8f 3c a2 db ce 3d
       -0.11974568 -0.13547488 0.017471952 0.101004854
000040 db 35 12 3e e5 d7 21 be b8 75 9b be c1 84 65 3e
       0.14278357 -0.15805013 -0.3036325 0.22413923
000050 38 6a e7 3c 78 20 a7 bd 28 78 17 3e 20 4a 75 3d
       0.028248891 -0.0816049 0.1479193 0.059885144
000060 4c ac 18 bf 66 96 79 be 29 d1 75 be 58 4a f1 3d
       -0.59637904 -0.24373779 -0.2400557 0.11781758
000070 5c a6 4d 3d de 18 d3 be 2f 63 90 be ff 9d b3 3d
       0.05020748 -0.4122991 -0.2820067 0.0877037

predictor.project.6.weight f4 [16, 32]
000000 7d 1c 1b be a3 4a ad be 11 68 dc 3e d5 50 e7 bd
       -0.15147586 -0.33846006 0.43048146 -0.11294714
000010 37 b3 77 3e c4 09 bc bd 72 cf 7b bd 33 c9 40 3e
       0.24189459 -0.0918155 -0.061477132 0.18826751
000020 4e 10 82 be 90 f5 2a 3e c1 eb 28 be 15 2a f2 3d
       -0.25403064 0.16695237 -0.16496183 0.11824433
000030 b4 b4 7c bd ba ce 7d be 2f 40 ec 3d 34 e9 61 be
       -0.06169577 -0.24785891 0.115356795 -0.22061616
000040 36 4a 7e 3e 45 1e 15 be bf e8 92 bc 6e a2 90 be
       0.24832997 -0.14562328 -0.017933248 -0.28248924
000050 b0 54 57 be a2 31 9d be c6 4a 75 3d 2e 7f 21 be
       -0.210284 -0.3070193 0.059885763 -0.15771171
000060 87 2b 3f 3e 5d 6c 21 be c6 a9 83 3d 06 aa 9b ba
       0.18668948 -0.15763994 0.06428866 -0.0011876232
000070 d0 27 51 be 60 4b c9 be 1b aa aa 3e 65 ba c7 be
       -0.20425344 -0.3931532 0.33332905 -0.39009395
000080 88 43 4b 3e 29 8a b2 3d e7 e4 95 be 41 b0 03 bd
       0.1984998 0.08717758 -0.292762 -0.03215051
000090 cc ba 7d 3f 0e f2 b5 3e 99 ae 40 bf 3c 2c 0a 3d
       0.99113154 0.35536236 -0.75266415 0.03373359
0000a0 0d c9 a8 bc 19 ce 78 bf 28 4a 5a 3e 8e 5f 7e 3e
       -0.020603681 -0.9718948 0.21317351 0.24841139
0000b0 8f eb a1 bd 67 e9 c7 be 55 a4 0e 3f f8 cb 3f be
       -0.07906257 -0.3904526 0.557195 -0.18730152
0000c0 bc ea a0 3e 19 a3 7f 3e d5 9d a8 bd ac e0 2d be
       0.31429088 0.2496456 -0.08233229 -0.16980237
0000d0 e2 a4 47 3e 84 8f 02 bf 03 1f b3 3e 5e cd a0 be
       0.19496492 -0.5100024 0.34984598 -0.31406683
0000e0 ee aa 79 be 03 c9 ce 3e 17 aa a4 bf c2 cf a4 3e
       -0.24381611 0.40387735 -1.2864407 0.32189757
0000f0 46 96 05 be 48 70 9d bd 35 9a ac be e4 6a 0e bd
       -0.13045606 -0.076874316 -0.337114 -0.034769908
000100 66 ce 22 be b0 42 fe bd b2 ad f7 3d 68 bf ae 3d
       -0.15899047 -0.124150634 0.120936766 0.085326016
000110 55 2a ae bc 96 82 9d bd 7d de 27 3f 92 87 db 3e
       -0.02126042 -0.07690923 0.65573865 0.4287687
000120 35 14 58 3e 06 25 09 bf 2d bf 00 be 53 03 86 3e
       0.21101458 -0.5357212 -0.12572928 0.2617441
000130 ca ed 80 bd db 69 b3 3d 16 1f 1b bf c9 4f 3f 3e
       -0.06295355 0.08760425 -0.6059431 0.1868278
000140 a1 de 2e 3d 19 b4 1c bf 38 43 0a 3e 1b 32 95 bd
       0.042692784 -0.6121231 0.13502204 -0.072849475
000150 1d 63 37 bf 8c 5f 1a 3e 89 73 6f 3d 94 54 a3 3e
       -0.7163561 0.1507551 0.058459792 0.31900465
000160 85 16 c3 be ca f3 8f be c4 be b7 be b0 43 08 3f
       -0.3810312 -0.28115684 -0.3588773 0.5322828
000170 a0 a4 ed bd ba ad 4f bd c3 7b 41 bf a7 05 6c bc
       -0.11603665 -0.050702788 -0.7557947 -0.0144056445
000180 89 5b bc 3e 00 6f 31 be bb 75 ac bd aa e4 17 be
       0.36788586 -0.173275 -0.08420893 -0.14833322
000190 32 58 43 be e0 22 8f 3d 5f aa a8 3e af c6 af be
       -0.19076613 0.06989074 0.32942483 -0.3433127
0001a0 aa 1d 20 be 4d 02 7e 3e fb a2 a7 3d 82 0a 36 3d
       -0.15636316 0.24805565 0.08185383 0.044443615
0001b0 52 b7 64 3e ce f0 e5 bd 33 49 d2 be 5a 83 be 3c
       0.22335556 -0.112275705 -0.41071472 0.023255993
0001c0 fa 73 c6 bd f6 4c 9f bd 05 aa 4d 3c b6 61 95 be
       -0.096900895 -0.07778351 0.012552743 -0.2917611
0001d0 2e 5b bc be 83 1a 67 be 8a 80 9d 3e f7 41 98 bc
       -0.36788315 -0.22568707 0.3076213 -0.018586142
0001e0 af cf 8a be 09 bd e9 be 6f 2b 12 be 0b 2e 3b bd
       -0.27111575 -0.45652035 -0.14274381 -0.045698207
0001f0 d7 6d e2 3d cb 4b c2 bd a0 f4 1f 3d 3a 58 b4 be
       0.110561065 -0.094871126 0.039051652 -0.35223562
000200 0f ca 45 3e d8 d7 9e be 78 79 ce bd 92 9c dc be
       0.1931536 -0.3102405 -0.10081762 -0.43088204
000210 4a 7a 77 be 6f dc d7 3a ed a2 c2 be 29 ec 9e be
       -0.24167743 0.0016468893 -0.38014928 -0.3103955
000220 84 94 25 3e 58 85 ba be 36 7b 05 be bb ed d1 be
       0.16169935 -0.36429858 -0.13035282 -0.41001686
000230 73 10 09 bf 70 10 31 3e 8d 02 ff bc 0b a8 76 3e
       -0.53540725 0.17291427 -0.031129146 0.24087541
000240 6d f4 cd bd 9e 4a 9d be 46 43 81 3e f2 30 09 bb
       -0.10056386 -0.3072099 0.25246638 -0.0020933715
000250 d6 20 92 be 51 11 ad 3e cf f7 13 be 4d 35 6d be
       -0.28540677 0.33802274 -0.1445 -0.23164864
000260 8d 8a 72 bd 17 26 12 bd 29 0e 31 be 5a 69 42 3c
       -0.059214164 -0.035680857 -0.17290558 0.011865938
000270 17 45 4d bb cd 2e 58 3e 62 af c3 bd 32 a2 ff 3c
       -0.0031321698 0.21111603 -0.09554936 0.03120527
000280 e3 98 e0 bd 24 f2 8e 3d 6f f2 ed 3c 76 21 9d bb
       -0.10966661 0.069797784 0.029046265 -0.0047952486
000290 30 59 72 be bf 0f e9 be 2a a8 18 3e 23 62 c2 3e
       -0.23666835 -0.45519826 0.149079 0.37965497
0002a0 65 6e 7c be 59 4f 6a 3e 9b 7f 76 be b3 64 d6 be
       -0.24651487 0.22881831 -0.24072115 -0.41873702
0002b0 01 c4 d7 be 05 82 1f 3f f8 9f d8 bd bc c2 08 3d
       -0.42141727 0.6230777 -0.105773866 0.03338884
0002c0 b7 7d 1b bf e4 6b ac be c9 28 ff bd 11 97 2e be
       -0.607387 -0.33676064 -0.12458951 -0.17049815
0002d0 6a 88 ca 3e 82 e7 99 3d 98 7e 12 be 1d 98 1d be
       0.395572 0.0751486 -0.14306104 -0.15390058
0002e0 5b 5f 10 3f 1d 12 b1 3d ed 2d dc 3e 5e 05 da bd
       0.563955 0.08646033 0.4300379 -0.10645555
0002f0 0f fa 43 bf fd bf bb be 92 df 9c 3d 8d 0e 29 3e
       -0.76553434 -0.36669913 0.0765983 0.16509457
000300 4f 42 1b 3e 17 66 da be 62 b7 48 3d 28 92 f6 bc
       0.15162013 -0.42656013 0.049003012 -0.03009899
000310 b5 bf 94 3e 4d 79 bd be 4a 85 0b bf 1b 3c 9e be
       0.2905251 -0.37006608 -0.5450026 -0.30905232
000320 f9 85 7b bf fa ca 7d bf 00 ea 76 be 24 06 6f 3e
       -0.982513 -0.9913784 -0.24112701 0.23342186
000330 8c df e1 bd 06 92 25 bf e0 7b 39 3e af 64 dd bd
       -0.11028966 -0.6467594 0.18113661 -0.108102195
000340 55 69 c6 bd af 95 00 be 01 21 8f 3e 1a fd e5 bc
       -0.09688059 -0.125571 0.27954867 -0.02807479
000350 51 5d de bd 5c 98 aa 3d df 1c 80 bf bf 58 da bd
       -0.108576424 0.083298415 -1.0008811 -0.10661458
000360 5d 33 79 3f bb 18 85 be 00 17 8a 3e d1 15 b2 3e
       0.97344 -0.2599543 0.26970673 0.3478227
000370 07 70 0c bf c5 88 ac 3e 2e 48 94 3e 47 bd 04 3e
       -0.5485844 0.33698097 0.2896132 0.12962829
000380 ac ee 7c 3e fd 44 19 bc 30 47 75 be 19 7a bf bd
       0.24700421 -0.009354827 -0.23952937 -0.0934946
000390 d8 17 16 3e 01 29 b7 3e db bb 5c bf 7d a9 a4 be
       0.14657533 0.3577347 -0.86224145 -0.3216056
0003a0 03 e8 89 bf 79 1e 18 bc 8b fa 5a 3d 9c 66 4a be
       -1.0773929 -0.009284609 0.053461593 -0.19765705
0003b0 54 94 6b 3b c4 0c 19 bf 6f a8 ee 3e 95 c0 1b 3e
       0.0035946565 -0.59785104 0.4661288 0.15210183
0003c0 66 89 c4 3a 02 61 46 3e 74 19 f6 bd 03 89 ab be
       0.0014994561 0.19372943 -0.120165735 -0.3350297
0003d0 8f 8f ab 3e 99 0a 46 3d ba 2a c5 3e 28 5d a2 3e
       0.33507964 0.04834995 0.3850916 0.31711698
0003e0 bd e3 10 3f 39 79 4e bf c5 e0 10 3e 8b 73 b9 be
       0.565975 -0.8065372 0.14148243 -0.36220965
0003f0 6d 9a 60 bd 95 14 df be 3d fd 26 3e 85 00 a3 be
       -0.054834772 -0.4357039 0.1630754 -0.31836334

predictor.project.6.bias f4 [16]
000000 47 3c 2a be 3e 24 23 3e fd cf 30 be d8 39 2f be
       -0.16624556 0.15931794 -0.17266841 -0.1711191
000010 ac 11 d2 bd 9f bb 41 be 62 12 88 be 20 1c 30 3e
       -0.10257277 -0.18919228 -0.26576525 0.17198229
000020 ad c1 56 bc e6 e7 c3 3d 93 96 dc 3d d0 0b 86 be
       -0.013107699 0.095657155 0.10770907 -0.26180887
000030 89 64 ea bc a0 aa 35 be c6 2b 5e bd 59 43 9b be
       -0.028612392 -0.1774087 -0.054240964 -0.3032482

predictor.project.9.weight f4 [1, 16]
000000 0c 65 f8 bb a3 b1 67 bd 97 8c 6a 3d df 46 9c bb
       -0.007580405 -0.056565892 0.057262983 -0.0047691907
000010 4e fb 5d bc a3 16 40 3e b5 0f 11 be 25 1c b5 bd
       -0.013548685 0.18758635 -0.14166148 -0.08843259
000020 c0 28 21 be 30 8c 4b bf fb 0b cc 3d cd 7a 81 be
       -0.15738201 -0.79510784 0.099632226 -0.25289002
000030 14 12 b2 3e ed 31 9e be fc 2f 75 be 8b 41 f8 3d
       0.34779418 -0.30897465 -0.23944086 0.12121876
