app/api/DrugDiscoveryVirtualScreening/model/COVID19_binding_affinity.pth (torch_old, 10266 bytes, 7 tensors)

predictor.project.0.weight f4 [32, 5]
0	0x3e9367e2	0.28790194
1	0xbc004238	-0.007828288
2	0x3eb20c47	0.34774992
3	0x3d14462d	0.036199737
4	0x3d61f4a6	0.055164956
5	0x3f047eee	0.5175618
6	0x3e4dad8b	0.20085733
7	0x3d384603	0.044988643
8	0x3dc165f1	0.09443272
9	0x3daec120	0.085329294
10	0xbeccca25	-0.39997974
11	0xbeedb668	-0.46428227
12	0x3e896720	0.2683649
13	0x3e2f5b4c	0.1712467
14	0xbe84b419	-0.25918654
15	0x3fc5a373	1.5440506
16	0x3dfa8643	0.1223264
17	0x3defa1ee	0.117008075
18	0x3e461af7	0.19346224
19	0x3e0e2ace	0.13883516
20	0x3e80c177	0.25147602
21	0xbd1da8ac	-0.038490936
22	0x3cb05bd2	0.021528158
23	0x3e730a6e	0.23734447
24	0x3d2bad2a	0.04191319
25	0x3f27e000	0.6557617
26	0xbd99afb0	-0.07504213
27	0x3ecb0525	0.39652362
28	0x3df8f6b3	0.12156429
29	0xbe197bb0	-0.1498859
30	0x3c5ce343	0.013481918
31	0xbe061377	-0.13093363
32	0x3d4e9d5f	0.05044305
33	0xc00604be	-2.0940394
34	0xc01c4e40	-2.442276
35	0xc041d492	-3.0285993
36	0xbd8a808b	-0.06762799
37	0xbdec07d8	-0.115249336
38	0x3e87e263	0.26539907
39	0xbdbda6e4	-0.092603475
40	0x3edeed21	0.4354029
41	0xbed60f8b	-0.41808733
42	0x3e2f23ce	0.17103502
43	0xbd38a059	-0.045074794
44	0xbc258ff8	-0.010105126
45	0x3df79283	0.12088492
46	0xbfe10098	-1.7578306
47	0xbf1ebbfb	-0.62005585
48	0xbeacb070	-0.3372836
49	0x3e27c71d	0.1638455
50	0xbe666584	-0.22499663
51	0x3d10e2ac	0.03537242
52	0x3d98142e	0.07425724
53	0xbd89a897	-0.06721609
54	0x3e94afa2	0.29040247
55	0xbf4091bf	-0.7522239
56	0xbd9e957d	-0.077433564
57	0xbf9582b2	-1.168051
58	0xbe5add04	-0.21373373
59	0xbfa6d763	-1.3034481
60	0x3ef7828a	0.4834178
61	0x3eda562e	0.42643875
62	0x3e38bf42	0.18041709
63	0x3ca0836a	0.019593913
64	0x3d2902ec	0.041262552
65	0x3eb3adc9	0.35093525
66	0x3cb9a42f	0.022661297
67	0xbe570384	-0.20997435
68	0x3d9aa5e0	0.075511694
69	0xc01e7852	-2.4760938
70	0xbcb4028c	-0.02197387
71	0xbe0c5261	-0.137033
72	0xbd218833	-0.03943653
73	0xbe06e78c	-0.13174266
74	0xbd02f332	-0.03197021
75	0x3d339964	0.043847457
76	0xbe2a54c5	-0.166339
77	0x3ebd7d3b	0.37009606
78	0x3d9d55ef	0.07682406
79	0x3bc3c081	0.005973876
80	0x3e381174	0.17975408
81	0xbd65d895	-0.05611475
82	0x3d97d182	0.07413007
83	0x3ce6b2ed	0.02816149
84	0x3dc01b63	0.093802236
85	0xbeb67a97	-0.35640404
86	0xbd8ba1e3	-0.06817987
87	0x3ea9d218	0.331681
88	0xbd8373a4	-0.06418541
89	0xbdcb8bab	-0.09938749
90	0x3f7f9320	0.9983387
91	0xbdd48674	-0.103772074
92	0x3cf01e2d	0.029311264
93	0xbe8ea253	-0.2785822
94	0x3e913e67	0.28367922
95	0x3f4159e4	0.7552779
96	0x3e5c77fe	0.21530148
97	0x3e385b84	0.1800366
98	0x3e64fa64	0.22361141
99	0x3e08167f	0.13289832
100	0x3e108dd7	0.14116608
101	0xbeca6148	-0.39527345
102	0x3e627ddc	0.22118324
103	0xbe49c20c	-0.1970293
104	0x3dd2fe31	0.103023894
105	0xc0a0d8ad	-5.0264497
106	0xbdc47cf4	-0.095941454
107	0xbcb31e25	-0.02186496
108	0xbfbdc29f	-1.4825019
109	0x3d951f8c	0.07281408
110	0x3e5e4695	0.21706612
111	0xbe018270	-0.12647414
112	0x3ef7f2c2	0.48427397
113	0xbc9d6894	-0.019214906
114	0xbb508259	-0.0031815975
115	0x3e9a8de6	0.30186385
116	0xbcdec865	-0.027195165
117	0xbf91ba8a	-1.1385052
118	0x3e3c04a0	0.1836114
119	0xbdfaa497	-0.12238424
120	0xbd920d4f	-0.07131445
121	0x3dc7d732	0.09757842
122	0x3e3e3bb2	0.1857746
123	0xbd68d16e	-0.056840353
124	0xbbf7c4ef	-0.007561318
125	0x3e3c95f8	0.18416584
126	0xbf1b0674	-0.6055672
127	0x3ea57f50	0.32323694
128	0xbccc25eb	-0.024920424
129	0x3d9cb6ef	0.07652079
130	0xbeffdadd	-0.49971667
131	0x3e5a9b72	0.2134836
132	0xbe8c3e89	-0.2739146
133	0xbcaa8f21	-0.020820202
134	0x3e817d0e	0.25290722
135	0x3f970928	1.1799669
136	0xbd7b5460	-0.061359763
137	0x3e829fe7	0.2551262
138	0x3e11b50e	0.14229223
139	0x3d705307	0.05867293
140	0x3ef48720	0.47759342
141	0x3e345ae4	0.17612797
142	0x3ddacd24	0.10683659
143	0x3d9e7426	0.07736997
144	0xbd8d24f3	-0.06891813
145	0xbe0df915	-0.13864549
146	0xbe387117	-0.1801189
147	0x3ef00c65	0.46884456
148	0x3bc499e6	0.0059997914
149	0x3e748032	0.23877028
150	0x3f7db4ed	0.99104196
151	0x3e0f7c2b	0.1401221
152	0xbe2fe7d3	-0.17178278
153	0x3e17afee	0.14813206
154	0xbcb72890	-0.022358209
155	0x3e6a1b6e	0.22862026
156	0x3e027a4a	0.12741962
157	0xbeb36c7c	-0.35043705
158	0xbf46f075	-0.7771066
159	0xba555b0a	-0.0008138871

predictor.project.0.bias f4 [32]
0	0xbf26c898	-0.6514983
1	0xbf377ab8	-0.7167163
2	0xbd52cfb9	-0.05146763
3	0xbe9dbd24	-0.30808365
4	0x3bbada7a	0.005702314
5	0xbe8d3ab0	-0.27583838
6	0x3eb11c69	0.34591988
7	0x3ee3c892	0.4448896
8	0x3cbf8b6d	0.023381913
9	0xbef9e14c	-0.488047
10	0x3e352f78	0.17693889
11	0x3e1c6f5d	0.15276857
12	0x3be37e78	0.0069425665
13	0x3ea30cf5	0.31845823
14	0xbbda4f80	-0.006662309
15	0x3e8f4e3d	0.2798938
16	0x3bcaac1d	0.0061850683
17	0x3f0f4237	0.5596041
18	0x3e534818	0.2063297
19	0xbeb43488	-0.35196328
20	0xbdf9aec3	-0.12191536
21	0x3eb14fae	0.34631103
22	0x3ead5fb1	0.3386207
23	0x3ea24c91	0.3169904
24	0x3f01f4e1	0.5076428
25	0x3da68f81	0.0813284
26	0xbeea8d0b	-0.45810732
27	0xbeeefc03	-0.46676645
28	0xbedcf41f	-0.43155
29	0x3e9decbe	0.30844682
30	0xbe294cc0	-0.16533184
31	0xbec43a43	-0.383257

predictor.project.3.weight f4 [32, 32]
0	0xbe05461f	-0.1301503
1	0xbe1372ec	-0.14399308
2	0x3e04c3b9	0.12965287
3	0xbe0f248f	-0.1397879
4	0x3e527564	0.20552593
5	0xbc6683ad	-0.01406948
6	0xbe98d3f6	-0.29849213
7	0xbc476d24	-0.012172017
8	0x3ca32415	0.019914666
9	0x3e71e0f2	0.23620966
10	0xbdb6c044	-0.089233905
11	0xbefa3d98	-0.48875117
12	0x3e0f5f98	0.1400131
13	0x3ea1820e	0.31544536
14	0x3e3acbdd	0.1824183
15	0x3d0b21e3	0.033967864
16	0x3ded43a9	0.11585171
17	0x3d923f61	0.07140995
18	0xbd71a2a0	-0.058992982
19	0x3e66e674	0.22548848
20	0xbd9f5e53	-0.07781663
21	0xbef25450	-0.4732995
22	0xbe89d614	-0.2692114
23	0xbe3aa998	-0.18228757
24	0x3b825ded	0.003978482
25	0xbe70ce3f	-0.23516177
26	0xbea14794	-0.31499922
27	0x3de1bda7	0.110225014
28	0xbdcfce07	-0.101467185
29	0xbdb6be2e	-0.08922993
30	0xbe23b7a4	-0.15988022
31	0xbd0f7527	-0.035023835
32	0xbd975c0a	-0.07390602
33	0xbe43a0b8	-0.19104278
34	0x3e9a7088	0.3016398
35	0xbf3c9044	-0.7365763
36	0xbf2a27e9	-0.6646715
37	0xbce6c4b5	-0.02816997
38	0xbf071d03	-0.52778643
39	0xbcc95e1c	-0.024581008
40	0x3eda5531	0.4264312
41	0x3e43f2fe	0.19135663
42	0xbdd3190d	-0.103075124
43	0xbec9a46f	-0.39383265
44	0x3e434f0a	0.1907312
45	0xbc8fb959	-0.017544435
46	0xbe0337bf	-0.12814234
47	0xbe742e7c	-0.23845857
48	0xbe296b15	-0.16544755
49	0x3d4e8262	0.05041731
50	0xbe2e8c2a	-0.17045656
51	0xbeb53ccb	-0.35397944
52	0xbf40ed18	-0.75361776
53	0x3cba6c3a	0.022756685
54	0x3e09af4c	0.13445777
55	0xbca533de	-0.020166334
56	0x3e14dcf7	0.14537416
57	0x3e028c4a	0.12748829
58	0xbe8678a6	-0.26263922
59	0xbec043d9	-0.37551764
60	0xbe5220d5	-0.20520337
61	0xbe1d6d85	-0.1537381
62	0xbea2fbe2	-0.31832796
63	0xbf0ad3ee	-0.5422963
64	0xbd22ae95	-0.039717276
65	0x3e12e20c	0.14344043
66	0x3d61732f	0.05504149
67	0x3debd175	0.1151456
68	0x3db5a302	0.08868982
69	0x3d7a076a	0.061042227
70	0xbdb5ca25	-0.08876447
71	0xbded3c5a	-0.11583777
72	0x3dba6508	0.091013014
73	0xbe0c0da4	-0.13677078
74	0x3ba05ecd	0.0048941136
75	0x3dbd2f44	0.09237531
76	0x3e577e31	0.21044232
77	0xbe29c6c1	-0.16579725
78	0x3dafc883	0.085831665
79	0x3e8285ed	0.25492802
80	0x3d8644f0	0.065561175
81	0x3ec78218	0.3896644
82	0xbe47c1b8	-0.19507492
83	0xbe2dddd1	-0.16979147
84	0xbedb7022	-0.42858988
85	0xbe6c50d7	-0.23077713
86	0x3e97278d	0.29522362
87	0xbe8bd9ad	-0.2731451
88	0x3c6fd00f	0.014637007
89	0x3e0b3f74	0.13598424
90	0x3dec3fb8	0.11535591
91	0x3e6f3789	0.23361029
92	0x3e23e69c	0.16005939
93	0xbe0133d7	-0.12617432
94	0xbd9397bf	-0.07206678
95	0x3e2c1db2	0.16808203
96	0x3e8303de	0.25588888
97	0x3df9efbf	0.12203931
98	0xbe93d4bb	-0.28873238
99	0x3dcb0ae6	0.09914188
100	0xbc391df8	-0.011298649
101	0xbc94739f	-0.018121539
102	0xbed74917	-0.4204795
103	0x3d890909	0.066911764
104	0xbee2d155	-0.44300333
105	0xbf3ab602	-0.7293397
106	0xbc09a913	-0.008402127
107	0x3db883be	0.09009503
108	0x3ed08ef4	0.40734065
109	0xbe0f5332	-0.1399658
110	0xbe188621	-0.14894916
111	0x3dc75e4b	0.09734782
112	0x3d9f16d8	0.07768029
113	0x3e15ec27	0.14640866
114	0xbdcd42a2	-0.10022475
115	0x3cfb5bcc	0.03068342
116	0xbe784fb4	-0.24249154
117	0x3e541ebe	0.20714852
118	0xbea50b5a	-0.32235223
119	0xbd1f3444	-0.038868204
120	0x3e8a8035	0.2705094
121	0xbe66273c	-0.22475904
122	0x3d4d31a3	0.050096165
123	0x3e0c617b	0.13709061
124	0x3d5cc05d	0.05389439
125	0x3ac156b2	0.0014750569
126	0x3d9a694c	0.07539615
127	0xbf313d7c	-0.6923444
128	0xbe135292	-0.14386967
129	0x3e89d8ce	0.2692322
130	0xbf0a4699	-0.54013973
131	0xbf87f93a	-1.0622933
132	0xbf3a4bdc	-0.72772
133	0xbd14cd86	-0.036328815
134	0xbf032607	-0.512299
135	0xbebb6734	-0.36602175
136	0x3ebbf394	0.36709273
137	0xbf78c627	-0.97177356
138	0x3d51b015	0.051193316
139	0xbf08d2e2	-0.5344678
140	0xbe6fec00	-0.2342987
141	0xbe87a237	-0.26490948
142	0x3e3199c4	0.17343813
143	0xbf07ea13	-0.53091544
144	0xbf54d5ab	-0.8313853
145	0xbd9aa6d4	-0.07551351
146	0x3e8f8731	0.2803283
147	0xbf889d94	-1.0673089
148	0xbe35b784	-0.17745787
149	0x3f471b6c	0.7777622
150	0xbe356880	-0.17715645
151	0x3ca86ae2	0.020558778
152	0xbd84fd0e	-0.06493579
153	0xbd32a9f7	-0.043619122
154	0x3d3c716d	0.04600661
155	0xbdc2d50e	-0.09513293
156	0xbe0d752c	-0.13814229
157	0x3ea5d6b4	0.32390368
158	0xbd78e0cf	-0.06076127
159	0x3dd1c9f9	0.10243601
160	0x3a5cf107	0.000842825
161	0x3e395588	0.18099034
162	0xbf3c1d03	-0.7348177
163	0x3dfd446b	0.12366565
164	0x3e8a2fd1	0.26989606
165	0xbda1aaf8	-0.07893938
166	0xbda2db00	-0.07951927
167	0xbc971671	-0.018443318
168	0xbcd56260	-0.026047885
169	0x3e83674e	0.25664753
170	0xbe0ddcc7	-0.13853751
171	0x3ee45e41	0.4460316
172	0x3e3deaa1	0.18546535
173	0x3d0347fd	0.032051075
174	0x3e9b87df	0.303771
175	0xbec5e7ff	-0.3865356
176	0xbe4c8ef0	-0.19976401
177	0xbef3e8fe	-0.47638696
178	0x3e41bd4e	0.1891987
179	0x3d94136b	0.07230266
180	0xbf556e94	-0.83371854
181	0x3e074965	0.13211592
182	0xbfa5e97d	-1.296188
183	0x3e351e31	0.17687298
184	0xbd8d2cae	-0.068932876
185	0xbef0861d	-0.4697732
186	0xbc57e340	-0.013176739
187	0xbe800a92	-0.25008065
188	0x3e75dc86	0.24009904
189	0xbcd3ce22	-0.025855128
190	0x3ea0138a	0.31264907
191	0x3e6e8486	0.23292741
192	0x3e6ffff3	0.2343748
193	0xbe46c185	-0.1940976
194	0x3f005ce6	0.5014175
195	0x3e89093c	0.26764858
196	0x3d7830fa	0.060593583
197	0x3e6bbb24	0.23020607
198	0xbea5f739	-0.32415178
199	0xbe601d81	-0.21886255
200	0x3d64cdfe	0.055860512
201	0xbf0ac12c	-0.54201007
202	0xbe75fd2d	-0.2402236
203	0xbe8a5112	-0.27014977
204	0xbecc3da3	-0.39890775
205	0xbeb42904	-0.35187542
206	0xbe009e4a	-0.12560382
207	0x3ec8c495	0.3921248
208	0xbde801bd	-0.113284566
209	0x3ea95d48	0.3307898
210	0x3f193e4d	0.5986069
211	0xbdadc391	-0.08484567
212	0x3ea785c0	0.3271923
213	0x3d7596ec	0.059958383
214	0x3e28ffbe	0.16503808
215	0x3ec16be7	0.37777635
216	0xbea81023	-0.3282481
217	0x3e5911cb	0.21198194
218	0x3e84f1be	0.25965685
219	0x3e4dbb59	0.20090999
220	0x3e39874d	0.1811802
221	0x3e1d7940	0.15378284
222	0x3dfc85ce	0.12330209
223	0xbecc0ad8	-0.39852023
224	0xbf5daa5a	-0.8658806
225	0x3e9830dd	0.2972478
226	0x3f10e9f8	0.5660701
227	0x3d384101	0.044983868
228	0xbe684a4e	-0.22684595
229	0xbe8a3e22	-0.2700053
230	0x3ef278b7	0.47357723
231	0xbea6fe9f	-0.32616135
232	0x3eafe163	0.34351644
233	0xbda6b047	-0.08139091
234	0xbe5d8bb7	-0.21635328
235	0x3eca3fb4	0.39501727
236	0xbd298ca1	-0.04139388
237	0x3e52b9ab	0.20578639
238	0xbd5a1e00	-0.053251266
239	0x3eb33183	0.34998712
240	0xbe4229bf	-0.18961237
241	0xbf2edcaf	-0.68305486
242	0x3f02c774	0.5108559
243	0xbd732050	-0.059356987
244	0xbe989ff9	-0.2980955
245	0xbe301efc	-0.1719932
246	0x3e5dc04f	0.21655391
247	0x3f08836a	0.5332552
248	0xbc2dfcb7	-0.010619334
249	0xbe1c6977	-0.15274607
250	0x3e6613b7	0.22468458
251	0xbed51068	-0.4161408
252	0xbe6714cd	-0.22566529
253	0xbed00101	-0.40625766
254	0xbdc06eff	-0.09396171
255	0x3df4c7d9	0.119521804

predictor.project.3.bias f4 [32]
0	0xbc0d85f3	-0.008637893
1	0x3e88f550	0.2674966
2	0xbdd569d0	-0.10420573
3	0xbe2d01e8	-0.16895258
4	0x3e49ccde	0.19707057
5	0xbe1718b9	-0.14755525
6	0xbe758925	-0.23978098
7	0xbc46ce8f	-0.012134208
8	0x3e90298b	0.28156695
9	0xbde76020	-0.11297631
10	0xbdc4ad2c	-0.096033424
11	0xbe55669d	-0.20839925
12	0xbdf65f43	-0.120298885
13	0xbe0a4abf	-0.13505076
14	0x3c8f34b7	0.017481191
15	0x3dcf7fb4	0.10131779
16	0x3e0f7565	0.14009626
17	0xbe1fbdb4	-0.1559971
18	0xbe9b9329	-0.30385712
19	0x3e65a6ea	0.22426954
20	0x3ced2c9e	0.02895194
21	0xbdb0f5ee	-0.08640657
22	0x3e1652d2	0.14680031
23	0x3d7cd51b	0.06172667
24	0xbf1864e7	-0.59528965
25	0xbe7b6083	-0.24548535
26	0xbe754904	-0.23953635
27	0x3df0e504	0.11762431
28	0x3d543e74	0.051817372
29	0xbed117dd	-0.4083852
30	0xbe907dc3	-0.2822095
31	0x3db57a7b	0.08861252

predictor.project.6.weight f4 [16, 32]
0	0xbe1b1c7d	-0.15147586
1	0xbead4aa3	-0.33846006
2	0x3edc6811	0.43048146
3	0xbde750d5	-0.11294714
4	0x3e77b337	0.24189459
5	0xbdbc09c4	-0.0918155
6	0xbd7bcf72	-0.061477132
7	0x3e40c933	0.18826751
8	0xbe82104e	-0.25403064
9	0x3e2af590	0.16695237
10	0xbe28ebc1	-0.16496183
11	0x3df22a15	0.11824433
12	0xbd7cb4b4	-0.06169577
13	0xbe7dceba	-0.24785891
14	0x3dec402f	0.115356795
15	0xbe61e934	-0.22061616
16	0x3e7e4a36	0.24832997
17	0xbe151e45	-0.14562328
18	0xbc92e8bf	-0.017933248
19	0xbe90a26e	-0.28248924
20	0xbe5754b0	-0.210284
21	0xbe9d31a2	-0.3070193
22	0x3d754ac6	0.059885763
23	0xbe217f2e	-0.15771171
24	0x3e3f2b87	0.18668948
25	0xbe216c5d	-0.15763994
26	0x3d83a9c6	0.06428866
27	0xba9baa06	-0.0011876232
28	0xbe5127d0	-0.20425344
29	0xbec94b60	-0.3931532
30	0x3eaaaa1b	0.33332905
31	0xbec7ba65	-0.39009395
32	0x3e4a9563	0.19783549
33	0x3db1eef8	0.08688158
34	0xbe95da70	-0.29268217
35	0xbd06d0fe	-0.032914154
36	0x3f7d396e	0.98915756
37	0x3eb550a2	0.3541308
38	0xbf4221ca	-0.7583281
39	0x3d0a2813	0.033729624
40	0xbcad665a	-0.02116697
41	0xbf78c67e	-0.97177875
42	0x3e59bc73	0.21263294
43	0x3e7bfb9f	0.24607705
44	0xbda22d42	-0.079187885
45	0xbec7e967	-0.3904526
46	0x3f0e596a	0.55605185
47	0xbe420a93	-0.18949346
48	0x3ea0b7c1	0.31390193
49	0x3e7fbcf9	0.24974431
50	0xbda8f095	-0.082490124
51	0xbe2e6d90	-0.17033982
52	0x3e471917	0.19443165
53	0xbf02b5ff	-0.51058954
54	0x3eb308c1	0.34967616
55	0xbea13f0c	-0.31493413
56	0xbe7a6f2b	-0.2445647
57	0x3ecd4e4e	0.40098804
58	0xbfa4fa21	-1.2888833
59	0x3ea41979	0.32050684
60	0xbe0637b3	-0.13107185
61	0xbda3236d	-0.07965741
62	0xbead0de6	-0.33799666
63	0xbd10d7ac	-0.03536193
64	0xbe23535a	-0.15949765
65	0xbdfe83bc	-0.1242747
66	0x3df7cf66	0.12100105
67	0x3dafd2e2	0.085851446
68	0xbcae2a55	-0.02126042
69	0xbd988b43	-0.07448437
70	0x3f2763f2	0.6538688
71	0x3edbb4c5	0.42911354
72	0x3e57ecf1	0.2108648
73	0xbf0925fe	-0.53573596
74	0xbe00be92	-0.12572697
75	0x3e86d1d3	0.26331958
76	0xbd80ca45	-0.0628858
77	0x3db369db	0.08760425
78	0xbf1acdde	-0.6047038
79	0x3e3f5fec	0.18688935
80	0x3d302d8c	0.043012187
81	0xbf1c95e7	-0.6116623
82	0x3e0b40ec	0.13598984
83	0xbd95b56c	-0.07309994
84	0xbf37d239	-0.7180515
85	0x3e1aae1a	0.15105477
86	0x3d6be5db	0.057592254
87	0x3ea34d56	0.3189494
88	0xbec3c437	-0.38235638
89	0xbe8f123e	-0.27943605
90	0xbeb78860	-0.35846233
91	0x3f087a1f	0.5331134
92	0xbde95e46	-0.11394934
93	0xbd52edfc	-0.05149649
94	0xbf413e4d	-0.7548569
95	0xbc6e7860	-0.014555067
96	0x3ebc5b89	0.36788586
97	0xbe316f00	-0.173275
98	0xbdac75bb	-0.08420893
99	0xbe17e4aa	-0.14833322
100	0xbe435832	-0.19076613
101	0x3d8f22e0	0.06989074
102	0x3ea8aa5f	0.32942483
103	0xbeafc6af	-0.3433127
104	0xbe201daa	-0.15636316
105	0x3e7e024d	0.24805565
106	0x3da7a2fb	0.08185383
107	0x3d360a82	0.044443615
108	0x3e64b752	0.22335556
109	0xbde5f0ce	-0.112275705
110	0xbed24933	-0.41071472
111	0x3cbe835a	0.023255993
112	0xbdc673fa	-0.096900895
113	0xbd9f4cf6	-0.07778351
114	0x3c4daa05	0.012552743
115	0xbe9561b6	-0.2917611
116	0xbebc5b2e	-0.36788315
117	0xbe671a83	-0.22568707
118	0x3e9d808a	0.3076213
119	0xbc9841f7	-0.018586142
120	0xbe8acfaf	-0.27111575
121	0xbee9bd09	-0.45652035
122	0xbe122b6f	-0.14274381
123	0xbd3b2e0b	-0.045698207
124	0x3de26dd7	0.110561065
125	0xbdc24bcb	-0.094871126
126	0x3d1ff4a0	0.039051652
127	0xbeb4583a	-0.35223562
128	0x3e45ca0f	0.1931536
129	0xbe9ed7d8	-0.3102405
130	0xbdce7978	-0.10081762
131	0xbedc9c92	-0.43088204
132	0xbe777a4a	-0.24167743
133	0x3ad7dc6f	0.0016468893
134	0xbec2a2ed	-0.38014928
135	0xbe9eec29	-0.3103955
136	0x3e259484	0.16169935
137	0xbeba8558	-0.36429858
138	0xbe057b36	-0.13035282
139	0xbed1edbb	-0.41001686
140	0xbf091073	-0.53540725
141	0x3e311070	0.17291427
142	0xbcff028d	-0.031129146
143	0x3e76a80b	0.24087541
144	0xbdcdf46d	-0.10056386
145	0xbe9d4a9e	-0.3072099
146	0x3e814346	0.25246638
147	0xbb0930f2	-0.0020933715
148	0xbe9220d6	-0.28540677
149	0x3ead1151	0.33802274
150	0xbe13f7cf	-0.1445
151	0xbe6d354d	-0.23164864
152	0xbd728a8d	-0.059214164
153	0xbd122617	-0.035680857
154	0xbe310e29	-0.17290558
155	0x3c42695a	0.011865938
156	0xbb4d4517	-0.0031321698
157	0x3e582ecd	0.21111603
158	0xbdc3af62	-0.09554936
159	0x3cffa232	0.03120527
160	0xbde1a237	-0.11017268
161	0x3d8ef224	0.069797784
162	0x3cf1bf9e	0.029510316
163	0xbba88061	-0.005142257
164	0xbe721521	-0.23640873
165	0xbee8ff86	-0.4550745
166	0x3e1ab268	0.15107119
167	0x3ec2ce1d	0.38047877
168	0xbe7da18b	-0.24768655
169	0x3e6d49e4	0.23172718
170	0xbe762e16	-0.24041018
171	0xbed56b7b	-0.41683564
172	0xbed7cf24	-0.42150223
173	0x3f1f8c49	0.62323433
174	0xbdd8816a	-0.10571559
175	0x3d0ab810	0.033866942
176	0xbf1ba93b	-0.608051
177	0xbeacc5b9	-0.337446
178	0xbdff34e0	-0.12461257
179	0xbe2e35da	-0.1701273
180	0x3ecbb77b	0.39788422
181	0x3d999551	0.07499183
182	0xbe11d309	-0.1424066
183	0xbe1d081e	-0.15335128
184	0x3f1085d5	0.5645421
185	0x3db2a1e4	0.087222844
186	0x3edc6dca	0.43052512
187	0xbdd8f21e	-0.10593055
188	0xbf435372	-0.762992
189	0xbeba35af	-0.36369082
190	0x3d9c9469	0.076454945
191	0x3e29b042	0.16571143
192	0x3e1ca955	0.1529897
193	0xbedac51d	-0.4272851
194	0x3d522400	0.051303864
195	0xbce5805d	-0.02801531
196	0x3e94bfb5	0.2905251
197	0xbebc7195	-0.36805406
198	0xbf0bed3a	-0.54658854
199	0xbe9d7cf8	-0.30759406
200	0xbf7b8aa7	-0.9825844
201	0xbf7e432d	-0.9932125
202	0xbe76eb71	-0.24113251
203	0x3e6d92a9	0.23200478
204	0xbddf1193	-0.10892024
205	0xbf259206	-0.6467594
206	0x3e3b9489	0.1831838
207	0xbddb6e8b	-0.10714444
208	0xbdc29d64	-0.09502676
209	0xbdfc5a60	-0.12321925
210	0x3e9049f7	0.2818143
211	0xbcdb7d2e	-0.026793089
212	0xbddeea6a	-0.10884555
213	0x3daf107d	0.08548067
214	0xbf7fffcb	-0.99999684
215	0xbdd71186	-0.10501389
216	0x3f79aaa8	0.97526026
217	0xbe844052	-0.25830323
218	0x3e8affeb	0.27148375
219	0x3eb3100c	0.3497318
220	0xbf0cdfde	-0.55029094
221	0x3eac34c2	0.33634
222	0x3e955c29	0.29171875
223	0x3e06f230	0.13178325
224	0x3e7dd3ca	0.24787822
225	0xbc253ec0	-0.010085762
226	0xbe732c3b	-0.23747341
227	0xbdbbff2a	-0.09179528
228	0x3e1617d8	0.14657533
229	0x3eb8342c	0.35977304
230	0xbf5d5b86	-0.8646778
231	0xbea40245	-0.32032982
232	0xbf89f5a9	-1.0778095
233	0xbc181e79	-0.009284609
234	0x3d5aca20	0.053415418
235	0xbe46cf3b	-0.1941499
236	0x3b9b993b	0.004748491
237	0xbf190cc4	-0.59785104
238	0x3eef8f1c	0.4678887
239	0x3e1bcf78	0.15215862
240	0x3b438d98	0.0029839035
241	0x3e487b25	0.19578226
242	0xbdf25ddc	-0.118343085
243	0xbeab43d2	-0.3345018
244	0x3eab8fb2	0.33508068
245	0x3d4d5fd0	0.050140202
246	0x3ec58096	0.38574666
247	0x3ea2fe87	0.31834814
248	0x3f1171a2	0.56814015
249	0xbf4e0045	-0.8046916
250	0x3e12b211	0.1432574
251	0xbeb88741	-0.3604069
252	0xbd6442ac	-0.055727646
253	0xbedf58bc	-0.43622386
254	0x3e28d5e6	0.16487846
255	0xbea21e14	-0.31663573

predictor.project.6.bias f4 [16]
0	0xbe2a3c47	-0.16624556
1	0x3e22821d	0.15869947
2	0xbe30f982	-0.1728268
3	0xbe2f39d8	-0.1711191
4	0xbdd211ac	-0.10257277
5	0xbe40c560	-0.18825293
6	0xbe870359	-0.26369742
7	0x3e31b351	0.1735356
8	0xbc588022	-0.013214143
9	0x3dc5a543	0.09650662
10	0x3ddd8452	0.10816254
11	0xbe8708fe	-0.26374048
12	0xbcef59df	-0.029217659
13	0xbe366c52	-0.17814758
14	0xbd5e2bc6	-0.054240964
15	0xbe9b9b26	-0.30391806

predictor.project.9.weight f4 [1, 16]
0	0xbbf8650c	-0.007580405
1	0xbd6725a1	-0.05643237
2	0x3d6935a2	0.056935914
3	0xbb9c46df	-0.0047691907
4	0xbc5dfb4e	-0.013548685
5	0x3e404ab5	0.18778498
6	0xbe13b08f	-0.1442282
7	0xbdba2bd0	-0.09090388
8	0xbe212fb4	-0.15740854
9	0xbf4ac946	-0.7921337
10	0x3dcd1547	0.10013824
11	0xbe80c3f0	-0.25149488
12	0x3eb4a582	0.35282522
13	0xbe9de739	-0.3084047
14	0xbe752ffc	-0.23944086
15	0x3df3b1f9	0.1189918
