app/api/DrugDiscoveryVirtualScreening/model/GCN_Tox21_pre_trained.pth (torch_old, 116416 bytes, 25 tensors)

gnn.gnn_layers.0.graph_conv.weight f4 [74, 64]
000000 c1 75 4f 3d 67 8c 86 bd fa 61 77 3d c1 e5 12 bd
       0.05064941 -0.06569748 0.060396172 -0.03586364
000010 c7 84 8f 3d f4 fb 25 3d a6 69 73 ba 6f 26 2d be
       0.07007747 0.040523484 -0.0009285457 -0.16909193
000020 80 a9 8e 3c 7b 7d 1f be 77 79 02 3d 6a 57 5f 3c
       0.017414808 -0.15575211 0.03185412 0.013631681
000030 c5 39 63 bd f6 65 09 3e 75 a1 5f 3c 18 20 c8 3d
       -0.055475015 0.13417801 0.013649334 0.097717464
000040 da ed ca 3d 46 d2 15 be 02 61 b5 bd 62 c9 20 3e
       0.09908648 -0.14630994 -0.088563934 0.15701821
000050 13 d2 5b be 51 7a 6a bd 9e 51 bf bc 71 a8 30 3e
       -0.21466856 -0.057245556 -0.023354348 0.17251755
000060 ee a5 60 bc c0 ed 5d 3d 5e 55 d7 3b fd 52 bc bd
       -0.013711436 0.054181814 0.006571456 -0.09195516
000070 4d 53 1d be 3d d5 c8 bd e1 47 52 be a1 01 20 be
       -0.15363808 -0.09806297 -0.20535232 -0.15625621
000080 d9 49 1a 3d 04 c2 0a 3e b4 89 df bc 5f d0 a2 bd
       0.037668083 0.13550574 -0.027287342 -0.079499
000090 b3 01 92 3d c7 6d d3 bd fb c2 1d bd 47 08 e4 bd
       0.0712923 -0.10323673 -0.038516026 -0.11134391
0000a0 f3 cd 4f bd 11 8a 56 be 40 95 3f 3d 18 9b d3 3d
       -0.050733518 -0.20951106 0.046773195 0.10332316
0000b0 77 1a 37 3d 58 2c a4 3d 69 be 71 3d af d1 e6 bb
       0.044702973 0.080162704 0.05901948 -0.007044039
0000c0 c1 3e 1d 3d ab 40 95 ba 59 35 10 3e 52 44 08 3e
       0.038389925 -0.001138707 0.1408285 0.13307312
0000d0 1d 01 3c 3e 9c 7d 11 3e bd 72 86 bd 4c 17 93 b8
       0.183598 0.14208072 -0.06564853 -7.0138456e-05
0000e0 30 45 0d bd db fc d1 3d b7 b7 c9 3b 97 9b 35 3e
       -0.03448981 0.102533065 0.0061559337 0.17735134
0000f0 07 c0 d4 3d c2 8e 45 be d4 57 cc 3d d8 ac 48 3e
       0.10388189 -0.19292739 0.099776894 0.19597185
000100 24 d0 75 3e ae ac 2a 3c 02 27 c8 3d a3 6b 66 be
       0.2400518 0.010417147 0.09773065 -0.22501998
000110 d1 26 78 bd f8 76 01 3e d4 a1 30 be a7 b4 20 3e
       -0.060583893 0.12643039 -0.17249233 0.15693913
000120 ee a5 09 be 0b 88 fb 3c ec 57 b1 3d 3f aa a1 3d
       -0.13442203 0.030704519 0.08659348 0.078938
000130 58 c6 c2 b9 d7 59 1e be f5 c5 82 bd 0f b5 19 be
       -0.0003715034 -0.15463959 -0.063854136 -0.15010475
000140 b0 8c 5c 3e 1c 59 b2 3c ba e5 5f be 92 15 90 3d
       0.21538043 0.021771006 -0.21864977 0.07035364
000150 9e b1 b2 3d ca a2 e6 bd 71 bd 1a 3d cc e1 0c 3d
       0.08725284 -0.11261518 0.03777832 0.034395024
000160 cd 55 ce bd c3 23 d7 bd 1d 59 98 bd f6 78 5f be
       -0.10074959 -0.10504868 -0.07438872 -0.21823487
000170 d8 aa 0d 3e 86 77 9e ba 3d 3e f0 3d 33 a4 35 3e
       0.13834703 -0.0012090064 0.11730621 0.17738418
000180 a3 84 c6 bd dc 24 12 be f8 02 16 be 5a 7f c8 bd
       -0.09693267 -0.14271873 -0.1464957 -0.097899154
000190 7e 22 83 bd 36 08 3c 3c 30 90 2c be af cc b8 3d
       -0.06403063 0.011476567 -0.16851878 0.09023415
0001a0 55 61 e5 3d 4d db ef 3c 08 2d 23 3e 9e db 18 3e
       0.11200205 0.029279375 0.15935147 0.14927527
0001b0 2e 4d a5 be d4 13 a0 3c 30 89 3b 3e 44 af 48 be
       -0.32285446 0.019540705 0.18314052 -0.19598109
0001c0 16 0b e6 bd d1 af fe 3c 62 95 40 be 7e 85 02 bd
       -0.11232583 0.031089695 -0.18806985 -0.03186559
0001d0 1a 98 e2 bd 0f 39 00 3e bc f8 98 3c 57 e1 08 3e
       -0.11064167 0.12521766 0.018673293 0.1336721
0001e0 1d 7e 35 3e 8d 18 e1 3d c3 39 3b be 6c 4c 1e 3e
       0.1772389 0.10991011 -0.18283753 0.1545884
0001f0 1f 99 19 3e 17 d7 38 be 35 52 95 bd 6a ca e1 3d
       0.14999817 -0.180508 -0.0729107 0.110249355
000200 74 f6 6f be bb 36 40 be d4 52 f4 bd 68 4c a0 3d
       -0.23433858 -0.18770878 -0.11929861 0.07827073
000210 39 cd 21 bd 69 b3 86 be 27 d4 c7 3d 9f 26 dc 3d
       -0.039502356 -0.26308754 0.09757262 0.10749554
000220 d4 ae f9 3d 77 7e 39 be 2f 7d 5e 3e c1 c2 dd bc
       0.12191549 -0.18114649 0.21727441 -0.027070405
000230 cb 38 4b be 32 b7 6b bd 1e 7d e5 3d 7b 71 bc 3d
       -0.19845884 -0.057547756 0.11205505 0.09201332
000240 8e 4f 23 3b 9c 4a 1d 3e b6 d2 69 be 20 cd bb 3d
       0.0024919244 0.15360492 -0.22834286 0.09169984
000250 ab fc 76 3e b3 4e c8 bd 57 ee 12 3d ad 73 90 bd
       0.24119823 -0.09780636 0.03587183 -0.070533134
000260 48 f4 61 be f8 63 7b bd 29 74 b4 bd 77 39 47 be
       -0.22065842 -0.061374635 -0.08811218 -0.19455515
000270 f9 80 34 be 27 8d 34 3d eb dd 52 3e 9d cb 3b 3d
       -0.17627324 0.044079926 0.20592467 0.045848478
000280 12 4a 1e be 3d 0e 15 3e ce 79 61 3d 87 e8 50 be
       -0.15457943 0.14556213 0.055047803 -0.20401202
000290 50 71 07 3a db c7 12 3e 8f 31 08 be 7f 47 fc bc
       0.0005166726 0.14334051 -0.13300155 -0.03079581
0002a0 0f 4f f7 bd f8 68 40 be 69 d9 fa bd f5 33 b6 3b
       -0.12075626 -0.18790042 -0.12248499 0.005560393
0002b0 ab 96 2b 3e 20 0e 34 bd e0 dc 53 be 54 fd ed bc
       0.16756694 -0.043958783 -0.20689726 -0.02905146
0002c0 c9 2e 84 be 41 9e ec 3c 14 d6 fd 3d 9f 63 6e 3d
       -0.25816944 0.028884055 0.12394348 0.058200475
0002d0 14 2c 16 be fe 22 be bd 22 79 b5 3d 30 97 60 3d
       -0.14665252 -0.09284018 0.08860995 0.054831684
0002e0 4a 90 48 be 24 67 00 be 15 bd 43 bc 84 78 ad 3d
       -0.19586292 -0.12539345 -0.011946936 0.08470252
0002f0 42 3c 29 3e 21 31 a9 3d 14 48 54 3d 95 84 58 be
       0.16526893 0.08261324 0.05182655 -0.21144326
000300 da e8 0a 3e cf ae 4b 3d 15 ec 1b be 80 32 bc bd
       0.13565388 0.049727257 -0.15226777 -0.091893196
000310 f2 75 40 3d c4 c7 29 be 95 c6 0c 3e 88 f3 3c 3e
       0.04698748 -0.16580111 0.13747628 0.18452275
000320 a7 73 dc bd 66 26 55 be e2 6c ec bd b9 48 59 be
       -0.107642464 -0.20815429 -0.11544205 -0.21219148
000330 60 e6 c3 bc c0 27 54 3e 8c 6d 9e 3d b0 d5 be 3b
       -0.023913562 0.20718288 0.07735738 0.0058238134
000340 1e 12 a9 bd 10 c5 36 be 28 42 0e be 5b f9 0d 3d
       -0.08255409 -0.17848611 -0.13892424 0.034661632
000350 ad 7a d5 3c 1d 9c 6d bd 02 b9 28 be d3 1b b9 3d
       0.026059473 -0.05801021 -0.16476825 0.0903851
000360 96 4c fc 3c 59 aa 95 bd a8 03 ef 3d c0 e8 2e 3e
       0.030798238 -0.07307882 0.11670619 0.17080975
000370 56 62 12 3d 33 b1 89 bd 27 c6 d2 3d 5a db 4f 3e
       0.03573831 -0.06723251 0.10291701 0.2029852
000380 76 f9 aa bd e5 19 8f bd 32 7b 21 bd 86 62 3f 3e
       -0.08348362 -0.06987361 -0.03942413 0.18689927
000390 e3 7f cb 3d 30 2f ef bd be 3a d2 3d 9f d1 dd 3d
       0.09936502 -0.11678922 0.102651104 0.10830998
0003a0 8a 4f a3 3d 67 b4 8e bc 0c 2f 7b 3c 8b c5 2e bc
       0.07974155 -0.017420007 0.015331041 -0.010667215
0003b0 57 cb 21 bd 2a 74 21 bc a0 ef b1 3c 05 e2 0b bc
       -0.03950056 -0.009854356 0.021720707 -0.008537774
0003c0 36 70 ea bd 60 48 0a 3d cb 35 2c be 95 d4 41 be
       -0.11447184 0.03376043 -0.16817395 -0.1892875
0003d0 af 9d 26 3e 87 e2 9e 3d 42 11 02 3e 0c 5f 7e 3d
       0.16271089 0.077580504 0.12701896 0.062102363
0003e0 10 fc ae bd a0 38 d2 bd 1d 62 62 bd 43 d9 6f bc
       -0.08544171 -0.102647066 -0.05526935 -0.014639202
0003f0 2f c8 22 3d 37 7e ef bd f9 64 82 be d8 77 3a 3e
       0.03974169 -0.116939954 -0.2546766 0.1820978

gnn.gnn_layers.0.graph_conv.bias f4 [64]
000000 40 8a f7 ba bd 1b 07 bc 68 28 bb 3c 48 5f 30 3b
       -0.0018885806 -0.008246359 0.022846416 0.002691226
000010 7c 36 7c 3c a7 b6 6b bc a8 de 66 3d ff 40 98 bb
       0.015393849 -0.014386809 0.056364685 -0.00464642
000020 dc fa d2 bb 05 50 f6 bb a0 bd 49 3d 34 91 04 bd
       -0.006438596 -0.0075168633 0.049253106 -0.03236504
000030 b8 40 da bc 4b ce e4 bc 52 6c f5 bc 27 d9 8a 3b
       -0.026642188 -0.0279304 -0.029958878 0.0042373124
000040 a7 46 ba 3c 9c 9c 74 bc 1e c5 c6 bc cc 9f a2 bc
       0.022738768 -0.014929917 -0.024263915 -0.019851588
000050 73 c4 73 bc bb d6 1e bd b6 51 cb bc 53 20 22 bb
       -0.01487838 -0.038779 -0.024819236 -0.0024738505
000060 47 6c 00 3c 1f 2f 11 bb ae 58 38 3c 63 0e 30 3c
       0.007838315 -0.002215333 0.011251612 0.010745618
000070 e2 6a 22 bd aa 6d 4a 3b 43 5b b8 bc 2e c5 04 bb
       -0.039652713 0.0030888119 -0.022504454 -0.002025913
000080 59 47 d5 3c f0 7a 54 3b ef 77 43 bc 9e ab 8f bb
       0.026034998 0.003242191 -0.01193045 -0.004384472
000090 68 c2 3f 3c 4d a5 23 bc d8 2d 28 3d 9c d8 5a 3b
       0.011704065 -0.009988141 0.041059345 0.003339327
0000a0 86 c3 0f 3c 8b 5c 9e bc ee e9 da bc 18 94 20 bc
       0.008774644 -0.019331237 -0.026722874 -0.009800933
0000b0 dd da 60 bb 0e ad a4 bd 93 8b d5 bb 91 83 99 bc
       -0.003431014 -0.0804082 -0.0065168827 -0.018739494
0000c0 76 7b 9f bc 47 3e f0 bb 4c 4c 54 bc 3b 15 63 bd
       -0.01946805 -0.007331643 -0.012957644 -0.05544017
0000d0 50 96 9b ba 9c 6c 48 3c df 19 0c bc 5e 63 e9 bb
       -0.0011870358 0.012232926 -0.00855109 -0.007122441
0000e0 07 4f 0a bd 4f 31 9e 3c 71 91 00 3d 76 75 12 3d
       -0.033766773 0.019310622 0.031388704 0.03575655
0000f0 c1 1d dc bc c4 0a bf bc 2c 33 3a 3d 1d 18 75 bb
       -0.026869657 -0.023320563 0.045458958 -0.0037398406

gnn.gnn_layers.0.res_connection.weight f4 [64, 74]
000000 c1 92 b7 3d 6b 0b 0a 3e fa f8 c4 bd e5 72 20 be
       0.08963538 0.13480918 -0.09617801 -0.15668829
000010 4d d9 ab bd 11 ed 61 3d 86 11 93 bd 09 56 0c 3d
       -0.08391056 0.055157725 -0.07181077 0.034261737
000020 59 37 b0 3d 15 d8 05 3d d1 a2 70 3c 20 3d 49 3e
       0.08604307 0.032676775 0.014687256 0.19652224
000030 4b b3 29 3e cc 53 ab bc 48 bb d5 3d d9 0b b4 3d
       0.16572301 -0.02091398 0.10436112 0.08791322
000040 4a ab 44 3b 24 2d 7e 3d 63 92 15 bd 83 3f a7 bd
       0.0030009323 0.06205477 -0.03651656 -0.08166411
000050 b8 ed b2 bd 81 24 b8 3b b0 69 9d 3d 1e 00 cf 3d
       -0.087367475 0.005619586 0.07686174 0.10107444
000060 43 c8 ed bd 46 a3 04 3d 67 0e f6 bd 74 20 15 3e
       -0.116104625 0.032382272 -0.12014466 0.14563161
000070 66 67 c1 3d 53 d0 f3 3d e4 b6 69 bc 9c ed 24 3d
       0.0944355 0.11904969 -0.014264796 0.040265664
000080 32 2c a7 bd d1 5f 11 3c fd 11 bc 3d 39 7f 08 3e
       -0.081627265 0.008872942 0.091831185 0.13329782
000090 c2 93 f9 3d 9e e0 7e bb c8 df 13 3e b8 de a0 3d
       0.12186386 -0.0038891206 0.14440835 0.0785498
0000a0 17 98 06 3e e4 ff ad bc 10 6b 80 bd c1 11 88 3d
       0.13143955 -0.021240182 -0.062704206 0.06644011
0000b0 c0 5c f5 3b 64 4d 16 bc 42 37 b8 bd 67 13 2c bd
       0.0074878633 -0.009173725 -0.089949146 -0.04201069
0000c0 10 59 2c bd ac 39 22 3e fa f6 03 bd b0 5a 02 bc
       -0.042077124 0.15842313 -0.032217957 -0.007956192
0000d0 c0 72 de bc f0 44 9b bd 70 aa f8 3c 73 a9 58 bb
       -0.027154326 -0.07581508 0.030354708 -0.0033059984
0000e0 65 c9 b1 3d 53 7a e3 39 6f 1f e4 bd 30 9d a6 3d
       0.08680991 0.00043387953 -0.11138808 0.0813545
0000f0 aa 0a 37 bd 42 29 46 3d 87 3e 23 3e c9 b6 b8 bd
       -0.044687904 0.04837919 0.15941821 -0.090192385
000100 d5 ff 60 3d 2b 04 e0 bd 57 bf 2b bd 5c 81 bc 3c
       0.05493148 -0.10938295 -0.041930523 0.023010902
000110 d6 ee 5c 3b ca 5a 00 bc 4d b1 7c bb c4 e7 98 3d
       0.0033711693 -0.007834146 -0.0038557828 0.07466081
000120 bb 67 b8 bd 16 32 0d 3e f3 44 85 bc 5e b2 1c 3e
       -0.0900416 0.13788638 -0.01626823 0.15302417
000130 d8 f8 28 bd d4 4b 60 bd cb a2 8c bd 9c 8c bc 3c
       -0.04125294 -0.054759815 -0.06866988 0.023016267
000140 82 e1 15 3e a3 ac fb bc 81 b9 83 3d 87 3e 3c 3d
       0.14636806 -0.030721968 0.064318664 0.04595807
000150 56 13 1f 3c 89 6f e1 3c 52 71 63 bd 08 20 85 ba
       0.0097092 0.027519004 -0.055527993 -0.0010156641
000160 ec 1c 7e 3d a0 7d 4f 3b f4 35 03 bc 9c 0c d0 3c
       0.0620393 0.0031660572 -0.008008469 0.025396638
000170 50 c9 23 be c6 74 97 bd 8a af 5c bd 88 98 eb bb
       -0.15994763 -0.0739532 -0.053878345 -0.007189814
000180 7e cb eb bd 72 5a b7 3d 30 73 c6 bd 9d 38 23 3e
       -0.115134224 0.08952798 -0.09689939 0.15939565
000190 74 fa 15 be b4 74 c6 bd 7c 03 99 ba 17 67 21 bd
       -0.14646322 -0.09690228 -0.0011674012 -0.039404955
0001a0 3c a2 a1 bd 2b e0 b1 bd 31 33 e2 3d 89 cf 6a 3c
       -0.07892272 -0.08685335 0.1104492 0.014331707
0001b0 ae 40 2f be 02 aa e8 3b 17 80 34 bd 5f d2 7e bc
       -0.17114517 0.0071003446 -0.04406747 -0.015553086
0001c0 38 6a 28 3e 5b af 89 bd 7e 96 46 bc 7c 0e be 3c
       0.16446769 -0.067228995 -0.012120841 0.023200266
0001d0 f1 b4 ff 3c 73 e9 4d 3d 04 2c e3 3c 6b 30 af bd
       0.03121421 0.050271463 0.02773095 -0.08554157
0001e0 b8 64 e4 bd e4 48 65 3b f2 1b 9f 3d b8 a5 c0 3d
       -0.11152023 0.0034986073 0.07769002 0.09406608
0001f0 52 ee 94 bd f8 bd f3 3c d8 4f 8a 3d 88 31 eb 3d
       -0.072720185 0.02975367 0.0675351 0.11484057
000200 93 b2 07 3d 0c 36 2c be 9d 5c cd bd f0 80 5a 3c
       0.033129286 -0.16817492 -0.1002743 0.013336405
000210 dc e1 7e 3d fe a0 d5 3d 80 08 5b bd 58 25 bc 3d
       0.062227115 0.104310974 -0.053474903 0.0918681
000220 dc ac 84 bd 1f 68 d5 3c 90 45 65 3d 8f cb 3b bd
       -0.06478283 0.026050625 0.055974543 -0.045848425
000230 e7 97 b4 bc 36 14 d9 bb b5 8d 9a 3d fa c7 56 3b
       -0.022045089 -0.006624724 0.0754656 0.0032773004
000240 bd 87 b3 bd 4b 4a 0b be 5e 37 bb bd 83 03 9f bd
       -0.087661244 -0.1360256 -0.0914142 -0.07764342
000250 14 c0 5e 3b 5d f4 9e 3c 96 72 13 3d 11 5e e9 3c
       0.0033989 0.01940363 0.03599795 0.028487237
000260 8e a4 a5 3d 47 ab ea bd fe 24 f5 3d 00 07 d0 bc
       0.08088027 -0.1145845 0.11969946 -0.025393963
000270 c8 f7 2e bd 9c 7d a7 bd 64 68 83 bd 40 ea 22 3e
       -0.04271677 -0.08178255 -0.06416395 0.15909672
000280 53 37 c2 3a 61 62 c2 bc 0b f7 69 3c c0 52 1d 3c
       0.0014817513 -0.023728551 0.014280091 0.009602249
000290 8a 80 dc 3c 5e b2 49 bd f9 93 09 3e f5 fd df 3c
       0.026916761 -0.04924237 0.13435353 0.027342776
0002a0 7f 6a 79 bd e4 d2 33 bd 02 03 01 be 80 eb 08 3b
       -0.06089258 -0.043902293 -0.12598804 0.0020892322
0002b0 b1 b6 cf bd 62 ee c2 3d c0 55 16 3d 1d 45 c5 3d
       -0.101422675 0.09518124 0.03670287 0.09632323
0002c0 dc 52 94 3c 00 6a 31 3b dc 33 9d bd b3 d1 de bd
       0.018105917 0.0027071238 -0.07675907 -0.10879841
0002d0 dd 13 95 3c 36 29 a9 3d a3 6b a9 3d a3 c9 81 3d
       0.018197948 0.082598135 0.08272483 0.06337287
0002e0 ce 9a db bd ce 49 80 bd 25 1f 02 3e 16 d6 1c 3e
       -0.10722886 -0.06264077 0.12707193 0.15316042
0002f0 2c 01 10 3d 47 47 c8 3c 1c d7 21 3d de f6 95 3c
       0.035157368 0.02444805 0.039511785 0.018306192
000300 9e c0 20 bd 21 96 4c bc 65 03 76 bc b4 7a 8d 3d
       -0.039246194 -0.012486965 -0.015015458 0.069081694
000310 00 96 8e b9 f9 c5 be bd f0 fe 26 3c 3c 54 85 3d
       -0.0002719611 -0.09315104 0.010192618 0.06510207
000320 bc 38 10 3d ba 1b bd bd 7a d0 84 bd 3c 2e 36 3d
       0.035210356 -0.09233804 -0.06485076 0.044477686
000330 e0 18 ce 3d 75 53 70 bd 63 92 9e bd c0 21 77 3c
       0.10063338 -0.05867334 -0.07742765 0.01508373
000340 f3 5a c9 bd 5c d2 4f 3d b5 48 89 3d 83 0d 13 3e
       -0.098318 0.050737724 0.06703321 0.14360623
000350 48 b2 7f 3c f5 38 dc 3d 66 8d 4c 3d 98 df 3a bd
       0.01560647 0.10753051 0.049939536 -0.045623392
000360 c7 83 b6 3d a0 2d f0 bd d6 dd bf bc 77 1d 08 3e
       0.08911853 -0.11727452 -0.02342121 0.1329249
000370 7e 82 31 3d 46 10 61 bd b0 38 6b bc 59 53 ed 3c
       0.043337338 -0.05494716 -0.014356777 0.028970407
000380 94 3b d1 3c 03 1e 5f 3d 62 71 a2 3d d5 bf 3a 3c
       0.025541104 0.05447198 0.07931782 0.011398275
000390 88 b9 e9 b9 bc a1 f3 3c 9f cd 9e 3b b9 b4 45 3d
       -0.00044579455 0.029740207 0.0048462893 0.048268054
0003a0 ad 6c 35 bc f9 bd b6 3c bc 97 13 be 31 02 ed 3d
       -0.011073274 0.022307383 -0.14413351 0.115726836
0003b0 c8 a0 5f bd e1 32 04 3e 75 57 11 be f5 98 67 bb
       -0.054596692 0.12910034 -0.14193518 -0.0035338972
0003c0 5e a0 c5 3c 63 ff 06 bd 94 79 67 3d db 8c cd 3d
       0.02412432 -0.0329584 0.05651243 0.10036632
0003d0 2f a6 33 3e 14 55 29 3d f5 7e 98 bc 04 40 b6 bd
       0.17543863 0.041340902 -0.018615225 -0.08898929
0003e0 02 bd c2 bb a1 3b 33 be f9 b4 28 3d bd af db 3d
       -0.0059429416 -0.17503215 0.041188214 0.10726879
0003f0 c6 82 7b 3d 57 14 1f 3d 6d 27 bd 3d 35 10 76 bc
       0.061404012 0.038837757 0.092360355 -0.0150185125

gnn.gnn_layers.0.res_connection.bias f4 [64]
000000 f0 1f 15 3d dc 58 b5 3b de 7a 9d 3c e6 bb 20 bd
       0.03640741 0.0055342745 0.019223627 -0.039241694
000010 71 1c ab bd 75 14 ee 3c 40 09 9f 3d 0b f4 bf 3d
       -0.08355034 0.029062489 0.07765436 0.093727194
000020 74 c6 01 bc cc 16 19 39 9d 69 93 bd af db 88 bd
       -0.00792085 0.0001459971 -0.071978785 -0.06682526
000030 22 83 c7 3d 28 59 38 3d 24 cd d2 bc 0d 7c 93 3b
       0.097418085 0.0450069 -0.025732584 0.004500872
000040 9a 1e 08 bd 78 62 00 39 ea 32 a6 bd 5c c0 97 bd
       -0.03323231 0.00012243714 -0.0811518 -0.074097365
000050 eb 67 d9 bd 04 63 8e 3d 01 c3 bb bc 18 53 d1 bd
       -0.10615524 0.069524795 -0.022920134 -0.10220927
000060 d9 29 86 3c 07 21 0c bd c1 cf 4c bd 6e ea 1d bd
       0.016377376 -0.034211185 -0.050002817 -0.038553648
000070 ab 2f b7 bd f3 9e 52 bd 4a f3 e3 3d 54 d2 04 3e
       -0.08944639 -0.051421117 0.11130388 0.12970859
000080 80 b3 0a bd 5c fd de bd ad 08 97 bd 6b a0 a8 bb
       -0.03386259 -0.10888168 -0.07374702 -0.0051460764
000090 74 3a cc 3d 7c ef 5a bc 22 76 6f bd d3 96 8a bd
       0.099720865 -0.013362762 -0.05846227 -0.06767049
0000a0 fb c4 a3 3d 3c a9 99 3c c6 c2 ce bc 96 35 bc 3d
       0.079965554 0.018757455 -0.02523936 0.09189908
0000b0 8a 8c 0b bd 02 63 42 bd 7d 13 b0 bd 82 df 36 3d
       -0.034069575 -0.047457702 -0.08597467 0.044646747
0000c0 3b 67 de bd ab ad 68 3d 9a 70 91 3c f1 a7 45 bd
       -0.108595334 0.056806248 0.017753888 -0.048255865
0000d0 f0 43 72 3c 83 2d c1 ba fd fa dd 3d b0 e9 6a 3d
       0.014786705 -0.0014738295 0.10838888 0.057351768
0000e0 e9 f4 19 bd 57 e8 d2 bd a5 29 85 3d a7 b7 f6 bc
       -0.03758708 -0.102982216 0.06502084 -0.03011687
0000f0 8d db 67 3c 98 17 e9 bd 2c 25 f5 3d 32 86 a4 3d
       0.014151466 -0.11381453 0.119699806 0.08033408

gnn.gnn_layers.0.bn_layer.weight f4 [64]
000000 20 0f 85 3f 78 70 81 3f d4 50 83 3f 78 d6 81 3f
       1.0395241 1.0112448 1.0259042 1.0143576
000010 61 aa 7d 3f de 09 82 3f b1 1f 7e 3f 8a 36 85 3f
       0.990881 1.0159261 0.9926711 1.0407269
000020 94 ae 7b 3f 13 39 83 3f 50 c2 81 3f af e0 80 3f
       0.9831326 1.0251793 1.0137424 1.0068568
000030 6a ce 82 3f 4c d6 81 3f f4 52 72 3f b3 81 80 3f
       1.0219243 1.0143523 0.94657826 1.0039581
000040 c2 67 7f 3f a4 c1 84 3f 50 64 81 3f 20 db 80 3f
       0.99767697 1.0371594 1.0108738 1.0066872
000050 39 33 81 3f 61 2a 7e 3f 23 32 82 3f 8d 5a 80 3f
       1.0093757 0.99283415 1.017155 1.0027634
000060 9e d9 80 3f ca 2d 79 3f e0 58 82 3f 89 f9 82 3f
       1.0066411 0.97335494 1.0183372 1.0232402
000070 86 29 80 3f 3f e8 77 3f e5 30 7e 3f 0d 78 78 3f
       1.0012672 0.96838754 0.9929336 0.9705818
000080 97 c0 80 3f d0 5a 83 3f 08 f8 78 3f 0b b5 80 3f
       1.0058774 1.0262089 0.97253466 1.005525
000090 b6 31 78 3f c8 9e 76 3f 4a df 7d 3f 1d f2 83 3f
       0.9695085 0.9633603 0.9916884 1.0308262
0000a0 aa fc 7b 3f 6f ec 81 3f f3 d8 7f 3f ec 1e 82 3f
       0.9843241 1.0150279 0.99940413 1.0165687
0000b0 82 63 82 3f 8c 65 81 3f 35 ed 81 3f 69 ca 79 3f
       1.0186617 1.0109115 1.0150515 0.9757448
0000c0 a3 19 72 3f 86 fa 7b 3f 43 fa 7d 3f 95 f4 7a 3f
       0.9457037 0.98429143 0.99209994 0.9802945
0000d0 5c 47 79 3f 62 44 7b 3f ae f8 7a 3f 8e 90 7b 3f
       0.9737451 0.9815122 0.98035705 0.9826745
0000e0 44 0d 85 3f bc 8b 7f 3f a7 c0 74 3f a4 99 7a 3f
       1.0394673 0.9982259 0.95606464 0.97890687
0000f0 1f 24 7b 3f 63 4a 7d 3f 9a 9c 80 3f 3d 77 7e 3f
       0.9810199 0.9894163 1.0047791 0.99400693

gnn.gnn_layers.0.bn_layer.bias f4 [64]
000000 28 57 b4 3c c3 60 2c 3d 43 79 d4 3c 72 5e 15 3d
       0.022014216 0.042084467 0.025936728 0.036467023
000010 c5 0b 9d bb ce 44 67 3c 3a be 59 bd 23 4e 1e 3c
       -0.004792663 0.014115525 -0.05315993 0.009662184
000020 53 69 e9 3c 1d af 0e bd 7f 6a 16 3d 9c dd 01 3d
       0.028492605 -0.03483497 0.036722656 0.031705484
000030 39 4e 39 bd 39 93 df 3c 52 1e 5d 3d 06 3e 0a bc
       -0.045240615 0.02729188 0.053983994 -0.008437639
000040 15 9f 29 3d 61 10 63 3d 55 1a 78 bd 6a a4 46 bc
       0.041411478 0.055435542 -0.060571987 -0.01212416
000050 86 12 e4 bc fc 7c fc bb 00 55 31 3c 36 a2 d6 bd
       -0.027840864 -0.007705329 0.010823488 -0.10480158
000060 ed cf 1c 3d 75 9e 0b bc 96 ba 56 bd a3 41 85 3c
       0.03828423 -0.008521666 -0.052424036 0.01626665
000070 c2 04 04 bc 3f 9c 38 3d 7a f5 e4 3c 7b 2c c6 3b
       -0.008057775 0.045070883 0.027949084 0.006047783
000080 9a eb dd 3c dc 71 7b 3c 95 6b 63 3d e5 a3 29 3d
       0.027089883 0.01534697 0.05552252 0.041416068
000090 3f 99 3e 3c d8 b9 26 bc 6d 36 3f 3d 7e cd 89 3c
       0.011633216 -0.010176145 0.046682764 0.01682162
0000a0 49 2c ab 3c ca 16 ae bc 55 77 cd bb 6c 0e 05 bd
       0.02089514 -0.021251101 -0.006270329 -0.032484457
0000b0 c5 89 89 bd ef be 73 bd b4 d9 44 bd df fe 5b bd
       -0.067157306 -0.05950826 -0.04805918 -0.05370986
0000c0 af ae 19 3b 14 8f 41 3d 79 d7 b5 3d 39 40 e3 b9
       0.0023450067 0.04725559 0.08878989 -0.00043344664
0000d0 8c ed 8e bc ce 9e ee 3b ef e9 27 3c 91 f1 78 3d
       -0.017447256 0.0072821146 0.010248645 0.06077725
0000e0 2a b4 55 3c dd 21 8f 39 22 bb 56 bd df f9 22 bc
       0.013043443 0.00027300316 -0.052424558 -0.009947269
0000f0 fa 1b c7 3d 09 04 e9 3c 2b 6e ee bc 67 da 1b 3b
       0.09722133 0.028444307 -0.029105267 0.00237813

gnn.gnn_layers.0.bn_layer.running_mean f4 [64]
000000 59 48 14 3e 2a c5 0b 3e 79 1b c6 3e 12 b0 37 3e
       0.14480723 0.13649431 0.38692835 0.17938259
000010 3d 54 8e 3c 96 6d 07 3d 6a 6e 5d 3e ab ad 64 3d
       0.017374152 0.033063494 0.21624151 0.055829685
000020 1c 0e 2e 3e cd cd 45 3e ec bf be 3e d5 1f ce 3e
       0.1699757 0.19316788 0.372558 0.4025866
000030 70 e9 9b 3e f8 58 d4 3e cb 79 e9 3d 90 5b 8e 3d
       0.30451536 0.41474128 0.11400183 0.06951058
000040 a7 9a 38 3f c5 a5 55 3d 07 73 9b 3d 01 c7 13 3e
       0.7211098 0.052160043 0.07590299 0.14431383
000050 20 30 c2 3d 20 a0 c2 3e 81 f3 e7 3d c0 a7 b0 3e
       0.09481835 0.3801279 0.113257416 0.34502983
000060 94 8b 11 3e 0e 5d 2a 3e a5 fb e4 3e e5 18 82 3d
       0.14213401 0.1663706 0.4472324 0.063524045
000070 4d e9 2b 3e c8 ce 18 3e 7a b4 8f 3e 2e 98 09 3f
       0.16788216 0.14922631 0.2806738 0.5374783
000080 8e 13 27 3f 89 be be 3d 94 ca d6 3e 1d f9 fe 3d
       0.65264213 0.093136854 0.4195143 0.12449858
000090 7e ef 0f 3f a3 78 e0 3d 7d fe 9c 3d ab 97 e4 3c
       0.5622481 0.1096051 0.07665727 0.027904352
0000a0 02 3a fa 3d 1e c2 b3 3c ec 9f 0e 3d db 02 0a 3f
       0.12218095 0.021943148 0.034820482 0.5391061
0000b0 e0 48 a2 3d c6 d3 3e 3f 37 6b 00 3f 2e 61 b4 3e
       0.07924056 0.7454189 0.50163597 0.35230392
0000c0 09 0f 77 3c 75 91 0c 3e b0 d3 a0 3e 1b b7 c3 3e
       0.015079268 0.13727362 0.31411505 0.38225636
0000d0 27 78 37 3f 43 a4 06 3f 1f ae 82 3e 10 ac eb 3e
       0.7166771 0.52594393 0.2552347 0.4602971
0000e0 42 a0 4f 3d be 7b 35 3e 91 d9 00 3f 8f d8 85 3f
       0.050689943 0.17722985 0.5033198 1.0456713
0000f0 67 79 29 3f fc 50 0d 3e 66 5d 4e 3f 2e 5b 60 3f
       0.6620087 0.13800424 0.80611265 0.8763913

gnn.gnn_layers.0.bn_layer.running_var f4 [64]
000000 dc e3 72 3c 69 8c 13 3d db 19 7d 3d a3 e8 b5 3c
       0.014824834 0.036022577 0.061792236 0.022205656
000010 5e fd 85 3b 51 59 82 3b 97 9d 85 3d 64 e3 48 3b
       0.0040890416 0.0039779325 0.065241985 0.0030653113
000020 a6 0c 76 3d 8f 56 cd 3c d5 cd 1e 3e 68 0f b5 3d
       0.060070656 0.025065688 0.15508206 0.08840829
000030 30 c0 01 3c cb de 86 3d 3c 7b 1b 3c 64 c8 41 3c
       0.007919356 0.06585463 0.009489831 0.011827562
000040 9a 9c a5 3d 82 52 51 3c 04 4d 3a 3c 58 8d 01 3d
       0.0808651 0.012776019 0.011370901 0.031628937
000050 c9 1c 33 3d cb eb da 3d 36 cc 01 3d 53 ee c6 3d
       0.043728624 0.10689505 0.03168889 0.097134255
000060 1b dd 92 3c 89 03 be 3c 9e 97 d2 3d 79 1d 3b 3c
       0.017927697 0.023195045 0.10282825 0.011420601
000070 e5 68 15 3d 8c a1 bd 3c 2f 54 38 3d a0 95 c4 3d
       0.03647699 0.02314832 0.04500216 0.09598851
000080 04 96 ff 3d 7a 38 d4 3c 1b 91 04 3e d9 2f 0a 3d
       0.12479785 0.025905836 0.12945978 0.033737037
000090 4c f0 d7 3d 0a 64 0f 3c 00 75 ea 3b fc 11 75 3b
       0.1054388 0.0087518785 0.007155061 0.0037394753
0000a0 ba 47 0b 3d 8b a6 ec 3b 04 d5 9a 3b cd a3 62 3d
       0.03400395 0.007222002 0.0047251005 0.055331994
0000b0 5b ea 86 3c 68 35 22 3e 6f 60 fe 3d d3 8e d3 3d
       0.016469171 0.15840685 0.12420737 0.10329976
0000c0 24 8b cc 3b f9 28 8a 3c 0f 10 a4 3d 84 3c 79 3d
       0.006242173 0.01686524 0.080108754 0.060848728
0000d0 cc a9 fb 3d 73 91 2f 3e 11 e6 4c 3d 54 0a ab 3d
       0.122882456 0.17145328 0.050024096 0.08351579
0000e0 0c 05 6d 3b 22 b1 35 3d 88 0f b4 3d 27 a0 1e 3e
       0.0036166338 0.04435838 0.08792025 0.15490781
0000f0 95 f3 13 3e b6 5a f8 3c 64 4b bb 3d ee 1d 79 3e
       0.14448388 0.030316692 0.09145239 0.24327824

gnn.gnn_layers.1.graph_conv.weight f4 [64, 64]
000000 a6 0e 7f 3d 54 a7 dc 3d 6d ec 35 be 05 2d 66 bc
       0.06226983 0.10774103 -0.1776597 -0.014048819
000010 d1 82 a1 3d bc c4 56 be 21 94 2b be e7 8e 1d 3e
       0.078862794 -0.20973486 -0.16755725 0.15386544
000020 6a 32 79 3d b7 57 25 3e 15 43 02 3e 35 37 11 3e
       0.060839094 0.16146742 0.12720902 0.14181216
000030 22 50 28 3e 54 c1 4c 3e a3 c4 44 3c 7e 05 2e 3e
       0.16436818 0.19995624 0.0120097725 0.16994283
000040 9c ea 17 be a4 3e c0 3c 3b 9d 16 be d1 a7 43 be
       -0.1483559 0.02346737 -0.14708416 -0.19106986
000050 19 ae 85 3d d0 05 9a bd e1 cb f6 bd 4d d5 00 be
       0.06527347 -0.0752064 -0.120506056 -0.12581368
000060 00 49 1d be e1 d4 f6 3c d1 01 19 be 44 a7 3c be
       -0.15359879 0.030130805 -0.14942099 -0.18423182
000070 2e 89 21 3e ce 53 89 bc 01 d2 94 3d ec b4 2d 3e
       0.15774986 -0.016763594 0.072666176 0.16963547
000080 c0 f6 fb bd 1e ce 05 3e 22 db e6 3d 70 61 bd bd
       -0.12302923 0.13066909 0.11272265 -0.092471
000090 f4 ec d6 bc 8b 81 44 be 16 14 56 bd 43 69 89 3d
       -0.026236035 -0.19190042 -0.05226525 0.0670953
0000a0 d5 4d ae bd 83 f8 f0 bd 79 3b 85 bd 80 c9 97 3d
       -0.08510939 -0.1176615 -0.06505484 0.0741148
0000b0 b7 6f d6 bc 1d 22 66 3d be 49 08 3e 02 d0 94 bd
       -0.026176317 0.056184877 0.1330938 -0.07266237
0000c0 c8 54 98 3d dc ad b0 bc fd 2a 01 3e 98 39 50 3a
       0.07438046 -0.021567278 0.12614055 0.00079431525
0000d0 2e 69 4a 3e f1 6d 81 3d c6 42 77 bd 71 ce 40 bd
       0.19766685 0.06319798 -0.060366414 -0.047071878
0000e0 b9 48 de bd 36 f8 54 be dd 37 b2 3d 74 5a b7 3d
       -0.108537145 -0.2079781 0.08702061 0.089527994
0000f0 7e ca 5d 3e a9 bc 36 3e 90 5d 25 be a3 ed 02 bd
       0.21659276 0.17845406 -0.16148973 -0.03196491
000100 dc 81 88 3d f8 9a 6f 3d 37 d8 f1 3d ef d3 45 3d
       0.06665394 0.0584974 0.11808818 0.04829782
000110 70 42 1f be 6a 8c be bc b9 cd cb 3d 57 94 bf bb
       -0.15552688 -0.023260314 0.09951348 -0.005846541
000120 a8 a4 c8 3b 3a b0 30 be c1 e3 b9 3d e2 aa 31 3e
       0.006123144 -0.17254725 0.09076644 0.17350343
000130 34 e6 62 be 14 24 b0 3d 41 a1 af 3c 6f 63 19 be
       -0.22158128 0.08600631 0.021439197 -0.14979337
000140 5e f9 4e 3e b3 dc 37 be 13 e6 6c bc f0 34 93 3d
       0.20212314 -0.17955284 -0.014459151 0.071878314
000150 4c 06 23 3d eb 03 37 3e 96 a5 6c bc fb 8e 24 be
       0.039800927 0.17872588 -0.014443776 -0.16070168
000160 dc df 86 3d 69 ec ce bd c3 e6 a2 bd 36 46 f7 bb
       0.065856665 -0.101036854 -0.079541706 -0.0075462116
000170 a2 20 52 be 2f d7 78 3c 14 94 64 be 81 0f 61 3e
       -0.20520261 0.0151880225 -0.22322112 0.2197857
000180 12 3d ca 3b 9d d9 40 3e 67 53 4c be 1a 90 22 be
       0.006171831 0.18833013 -0.1995369 -0.15875283
000190 a7 99 11 3e 0a c2 4e be b7 a0 79 3d 94 ef 28 be
       0.1421877 -0.20191208 0.060944285 -0.16497642
0001a0 81 a6 f6 3d 71 d4 28 be 37 39 60 3e 37 5d 2d 3e
       0.12043477 -0.1648729 0.21896826 0.1693009
0001b0 73 19 e3 ba 11 8e 8b bd a2 e8 08 3e 71 47 ad 3d
       -0.001732631 -0.068142064 0.13369992 0.08460892
0001c0 e7 12 24 3e ea cf 37 3e 81 5a 25 3e d9 ab 2c 3e
       0.16022836 0.17950407 0.16147806 0.1686243
0001d0 ee 40 dc bc d9 c5 2c be d7 0e ef 3d 42 89 d8 3d
       -0.02688643 -0.16872348 0.11672752 0.10573055
0001e0 2a c2 ec bd e0 67 f8 bd f7 e7 c8 3d ea be 6a bd
       -0.11560471 -0.121291876 0.09809869 -0.057310976
0001f0 a4 1a a7 3d 63 5a 6b be ec 04 12 be e6 0a 6e 3d
       0.08159378 -0.22983699 -0.1425969 0.058115862
000200 33 f0 b6 3d 59 74 19 bd 13 3a 57 3d 62 36 bc 3d
       0.08932533 -0.037464473 0.05254562 0.0919006
000210 9d 9f fe bd a0 29 16 3e 7c f9 f7 3d 85 d1 4c 3e
       -0.124327876 0.14664316 0.12108132 0.200018
000220 c6 48 e8 bc 80 14 24 3e a3 b7 3b bd b7 f3 1c bd
       -0.028355014 0.16023445 -0.045829426 -0.038318362
000230 58 2c 3d be b5 9d c3 3d f0 c7 84 3d f6 40 42 3e
       -0.18473947 0.095515646 0.064834476 0.18970093
000240 1a ec 79 3e 4a d9 95 bd cb 72 41 3d 19 5d 37 3e
       0.24406472 -0.07316835 0.047228616 0.17906608
000250 41 e8 18 be 9a 87 56 3e 19 e5 70 bb 7e f1 53 be
       -0.14932348 0.20950165 -0.0036757647 -0.2069759
000260 76 e9 64 be 13 19 6b 3d 7f c8 b5 bd c6 d0 f3 3d
       -0.22354683 0.05739696 -0.08876132 0.11905055
000270 e0 73 03 3e 28 d1 c0 3d 14 55 ba bc 75 45 0b 3d
       0.12837172 0.094148934 -0.022745647 0.034001786
000280 45 68 2d 3d 39 68 36 3e 7c 61 08 3e 5e dc 40 be
       0.042335767 0.17813195 0.13318437 -0.18834063
000290 95 05 f5 3d ab 83 f2 bc 82 29 f8 3c 83 df 10 be
       0.11963955 -0.0296038 0.03029323 -0.14147763
0002a0 db 14 30 3e 1d ee 25 bc 0d 6b 88 3d a4 0a 60 3e
       0.17195456 -0.010127571 0.06661043 0.21879059
0002b0 8a 2e 57 be d6 17 35 3e a4 39 83 3d 55 0d 64 be
       -0.21013847 0.17684874 0.064074785 -0.22270711
0002c0 f6 2d f0 bd 2a e4 4e bc 31 df 14 be 07 c1 66 be
       -0.11727516 -0.012627641 -0.14538266 -0.22534572
0002d0 cb 9b bf bc d1 39 08 3d 5d 5f 09 be e3 dc ed bd
       -0.023389718 0.033258263 -0.13415284 -0.116143964
0002e0 b1 7f be 3d 57 12 11 ba 0f cb 58 be 3e 09 64 be
       0.09301699 -0.0005534044 -0.2117121 -0.2226915
0002f0 97 19 ec bd de 87 3e be 04 71 f8 3d 57 89 db 3d
       -0.115283184 -0.18606517 0.12130931 0.10719555
000300 bf 44 2b be b7 db e3 bd 2a 48 fc 3d df 3a de 3d
       -0.16725443 -0.11125892 0.12318452 0.108510725
000310 ab f9 40 be 26 4b d5 3c 03 2f a1 3d 97 3e 49 bd
       -0.18845241 0.02603681 0.07870295 -0.049131956
000320 0b 1f 10 3e 72 a7 61 bd 2e e1 a5 3a 7a eb a2 bd
       0.14074342 -0.05509133 0.001265561 -0.0795507
000330 c8 1f c1 3d 1f 40 fb bd 78 56 0f be af 9e ab bd
       0.0942989 -0.122680895 -0.13997829 -0.08379876
000340 d1 a9 20 be 9b 1a 39 3e 2c 69 24 be 67 42 d8 3c
       -0.1568978 0.18076555 -0.16055745 0.02639885
000350 2e d6 31 3d 45 aa 94 bb 45 07 db 3d 2b 02 db 3c
       0.04341715 -0.0045368993 0.10694746 0.026734432
000360 b4 3f 9e bd 5f ff 7c be 7e fa 1e be 9a 6a 72 bd
       -0.07726994 -0.24706791 -0.15525243 -0.059183694
000370 d0 d3 86 3e c3 ba ae 3d 44 9d 9f 3d b8 75 cf bd
       0.26333475 0.08531716 0.07793668 -0.10129875
000380 44 fb bc bd 69 fe d3 3c 27 e4 82 be a3 f9 8f 3d
       -0.092276126 0.025878148 -0.2556469 0.07030036
000390 3b e9 69 3c 09 f3 55 bc 79 8d a7 bd 7c 55 70 be
       0.014276798 -0.013058432 -0.08181281 -0.2347011
0003a0 70 bc 46 3d f6 e2 cc ba 83 49 10 be 54 b0 69 3c
       0.04851955 -0.0015631604 -0.14090542 0.014263231
0003b0 6c 3f 0e 3e 2e dc 34 bc 7d 4d 29 be 36 76 ce bd
       0.13891381 -0.011038823 -0.16533466 -0.10081141
0003c0 37 14 94 3c b8 c2 5f bc 20 bc 33 be 09 51 21 be
       0.018076045 -0.013657264 -0.17552233 -0.15753569
0003d0 59 12 41 bc 5a ad b3 bd 44 7c 27 be ab 42 33 be
       -0.01178416 -0.087732986 -0.16355997 -0.175059
0003e0 d6 55 13 3e 7b 9a ec 3d 62 72 c6 bd 4f 6c c8 bd
       0.14388213 0.11552902 -0.096897855 -0.09786283
0003f0 cd 38 14 be aa 7a bb bd 6d 0f b3 3d 7d 54 f5 bc
       -0.14474793 -0.09154256 0.087431766 -0.029947514

gnn.gnn_layers.1.graph_conv.bias f4 [64]
000000 c5 5d 74 bd 59 e3 9c bc 01 14 51 3d 78 68 12 bd
       -0.059659738 -0.019151377 0.051044468 -0.03574416
000010 db c5 54 bd f7 04 7f bd 2e 82 2d bd cd 8b 19 bd
       -0.051946502 -0.062260594 -0.042360477 -0.03748684
000020 69 da 84 bc 97 e2 42 bd ad 50 76 3c 89 56 b4 bd
       -0.016217427 -0.047579374 0.015033883 -0.08805568
000030 ec 94 cc bc 1b 9e 92 bd 9c 6b 3a b8 3d 33 9f bb
       -0.024973355 -0.071590625 -4.4446075e-05 -0.004858403
000040 91 bd 92 bd 9a 18 57 bd 5c 4e ab 3c f0 e1 4e bd
       -0.07165063 -0.052513696 0.020911388 -0.05050844
000050 d2 78 95 bd 3f 20 59 bc 4c af f3 bb ff 68 49 bd
       -0.07298435 -0.013252317 -0.0074366685 -0.049172398
000060 de 01 e1 bc 79 fc f3 3a 6b d9 31 bd 24 14 d7 3b
       -0.02746671 0.0018614671 -0.043420237 0.0065636802
000070 a8 18 89 3c 74 f6 85 bd f4 92 52 bd b5 a4 89 bc
       0.01673539 -0.06541148 -0.051409677 -0.016802171
000080 ad 08 e4 3c f8 5d 26 bd cb 28 1f 3c 7d 32 09 bd
       0.027836168 -0.04061696 0.009714316 -0.033495415
000090 3a f4 ae 3c 6a d4 c5 bb de 11 db bb e7 e1 5d bd
       0.02135669 -0.0060372846 -0.0066854795 -0.054170515
0000a0 a1 6c 85 bb 22 77 3d bd 9e bb 7a bd b5 5e 29 bd
       -0.0040717875 -0.046256192 -0.061214082 -0.041350085
0000b0 54 56 c6 bd 72 88 41 3c 5a 60 0d bb ac 5b a2 bb
       -0.096844345 0.011812316 -0.0021572323 -0.004954776
0000c0 8a e3 20 3d 19 a7 55 3c 6b 01 17 bc 8e 04 0a 3a
       0.0392795 0.0130403275 -0.009216647 0.0005264961
0000d0 ea fa ec bc 0e ea 04 bd a3 7d 5f bd 8a c5 9d bc
       -0.028928239 -0.032449774 -0.054563176 -0.019259233
0000e0 58 7d a2 bb 00 a9 09 bd cf 18 f5 bc 6a 25 84 bb
       -0.00495879 -0.033608437 -0.029919056 -0.0040327804
0000f0 e8 02 9f bc a1 e9 80 bd e8 5d bf ba 8c 12 97 bd
       -0.019410565 -0.06294561 -0.001460013 -0.073765844

gnn.gnn_layers.1.res_connection.weight f4 [64, 64]
000000 b1 bd fc 3d 51 50 7c bd 3e 6c 51 bd af 84 70 bd
       0.12340868 -0.061600033 -0.05112862 -0.058720287
000010 be 79 07 be b5 a6 0c 3d f9 8d 84 3d 82 6e c6 bd
       -0.13230035 0.03433867 0.06472392 -0.096890464
000020 40 33 00 be 82 b1 29 bd 51 08 c4 3d ad 1f 8f 3d
       -0.1251955 -0.04142905 0.09571899 0.069884636
000030 aa d5 b9 3c bd b4 e6 bd 74 00 6a bd 74 39 b8 bd
       0.02268489 -0.11264942 -0.05712934 -0.08995333
000040 80 e4 45 3b 35 25 95 bd 3a f2 a7 bc 56 6a a5 bc
       0.003019601 -0.07282487 -0.020501245 -0.020192306
000050 01 3c b4 3d 97 11 bb 3d a2 0b 36 bd 86 6e 30 bd
       0.08800507 0.09134214 -0.044444688 -0.043074153
000060 7c 0c 0b 3e 41 94 87 3d fe e0 45 bc 44 eb 07 be
       0.13578981 0.06620074 -0.012077568 -0.1327334
000070 e1 ac 62 bd 34 b7 ee bc 96 b6 5d 3d 05 6c f8 bd
       -0.05534065 -0.029140092 0.054129206 -0.12129978
000080 e6 15 06 3d bf 74 82 3c 05 fa ac bd cb dd d4 bc
       0.032735728 0.01592481 -0.08446125 -0.025984665
000090 d7 76 9c bd 3c ad c5 3d ee 59 96 bd 01 86 15 3e
       -0.076398544 0.096521825 -0.073413715 0.146019
0000a0 2d bb 37 3b c7 b6 d3 3b 54 94 1a bd 51 ea a7 bd
       0.002803515 0.0064609977 -0.037739113 -0.08198989
0000b0 19 b4 32 3d 97 5e ec 3d b3 de 89 3d e7 b8 9c 3d
       0.043628786 0.11541479 0.0673193 0.07652455
0000c0 29 26 e9 3d cc 08 8f 3d 9a bf f2 bd b6 74 10 bd
       0.113842316 0.069841 -0.11852951 -0.035267554
0000d0 2f bc f1 3d b5 8d 8d bc b7 6e 04 bd ca d5 de bc
       0.11803471 -0.017279485 -0.03233215 -0.027201552
0000e0 67 f1 de 3d 54 df 0f 3d 6b cc a4 bc f3 a4 b4 3d
       0.108858876 0.03512509 -0.020117005 0.08820524
0000f0 d7 c2 b2 bc 76 24 d9 bc b7 62 0e 3d 9d 21 4a bd
       -0.021821423 -0.026506644 0.03476211 -0.049348462
000100 f1 12 e9 3c 3a 30 6a 3d da 69 fa bc 24 83 bd bb
       0.028451415 0.0571749 -0.030568052 -0.0057834554
000110 1f b9 88 bd 99 47 1d be 8c f5 04 3d 64 78 1b 3e
       -0.06675934 -0.15359344 0.032460734 0.15182644
000120 11 fe 02 bd 24 89 1a 3d d9 a6 ba bd 5d 9c f5 3d
       -0.031980578 0.037728444 -0.09113855 0.119927146
000130 67 31 f5 3d 15 12 f1 3d 13 34 d8 ba 3e 3f c0 bc
       0.119723134 0.11771027 -0.0016495012 -0.023467656
000140 89 08 fc bd 9d 90 c7 bd 6d 6e 59 3d 8a 38 cb 3d
       -0.123063155 -0.0974438 0.053083826 0.09922893
000150 9e 7c de 3b 1a df 9d bd 7c 06 0e 3d 35 69 7a bc
       0.006789758 -0.07708569 0.034674153 -0.015283872
000160 2e aa cf 3d 5d 46 ca 3d 96 30 11 3d 2f b3 d4 3d
       0.10139881 0.09876702 0.035446726 0.10385739
000170 a6 86 68 3d ae 69 36 3d 5f 81 dd bd 88 4b a4 3d
       0.056769036 0.044534378 -0.10815691 0.08022219
000180 a6 45 5b 3d 23 b9 e3 3d e2 f7 bf bd 78 e0 70 3d
       0.05353322 0.111192964 -0.09373452 0.05880782
000190 55 03 35 bd 20 74 29 3d 8a 17 06 3d 72 44 9f bd
       -0.04419263 0.04137051 0.032737292 -0.07776727
0001a0 2a ef 7e bd 57 22 e6 3d 56 28 4b 3d ed 9b 8d 3c
       -0.062239803 0.112370186 0.049599014 0.017286265
0001b0 e1 1d 44 bc ea a9 b7 3d f9 24 02 3d 60 71 86 bd
       -0.011970014 0.089679554 0.03177354 -0.06564593
0001c0 b8 6a d6 bd b1 92 8d 3d 80 b2 d6 bd 0d 3d ff bd
       -0.10469574 0.06912745 -0.10483265 -0.124628164
0001d0 11 0f 66 3c d1 72 22 bd 9b 02 8e 3d 0c e3 07 bd
       0.014041678 -0.03966028 0.06934091 -0.033175513
0001e0 80 c9 9f ba 89 16 6e 3c c3 cd 1d bc ba a1 eb 3c
       -0.0012190789 0.01453174 -0.009631577 0.02876364
0001f0 82 88 db 3d 74 37 20 3d 05 df 03 3e d0 ec c5 3d
       0.10719396 0.039115384 0.12878044 0.09664309
000200 45 11 3d 3d 66 e2 c3 bd 31 43 44 bd 12 59 33 3d
       0.046159048 -0.095646665 -0.04791564 0.043786116
000210 89 8f 1f be 48 e1 15 3e ea 03 0f 3d c5 60 c3 3d
       -0.15582098 0.14636719 0.034915842 0.09539942
000220 ee db 94 3d 44 61 86 bd a0 b1 01 be 9f 36 fe bd
       0.07268511 -0.06561521 -0.12665415 -0.12412762
000230 4b 3e 0e be 13 6f d2 3d 7f c8 c6 bd d9 55 c0 bc
       -0.1389095 0.10275092 -0.0970621 -0.023478435
000240 0f 86 f4 3d f0 a7 83 3d 56 a9 66 bd a6 19 c6 bd
       0.11939632 0.06428516 -0.056313835 -0.09672861
000250 8a b3 39 3d bc 11 84 3d c0 f0 18 3d 04 76 8d 3d
       0.045337237 0.06448695 0.037338972 0.06907275
000260 e8 fd 07 3d f2 73 07 be d9 ae 52 3d ec 5f 5f bd
       0.03320113 -0.13227823 0.05143628 -0.054534838
000270 87 4d 1b 3c 6b 4b fd 3d 2f 48 91 bd 4e bb 0f be
       0.009478933 0.123679005 -0.07093846 -0.14036295
000280 c9 66 e8 3d e3 16 11 bd c9 24 49 bc 29 06 f7 bc
       0.1134773 -0.035422217 -0.012276837 -0.030154305
000290 6a 6e 85 3d e2 b1 f7 bd 4c 84 d6 3d 2c 3d 4b 3d
       0.065152004 -0.12094475 0.104744524 0.049618885
0002a0 f4 dd 82 bc d4 6d a0 bd f6 7f 02 be 8a 03 be 3d
       -0.015974976 -0.07833448 -0.12744126 0.09278019
0002b0 05 38 a8 3c d7 72 54 bc 1b 9b 07 3e 25 ea a2 bd
       0.020534525 -0.012966833 0.13242762 -0.07954816
0002c0 08 e7 fb bd 95 11 56 bd f4 25 03 3d 20 df eb bc
       -0.12299925 -0.05226286 0.032018617 -0.028792918
0002d0 ce f4 05 3c eb 98 ec bd e9 e3 e5 bc 57 89 a7 3d
       0.008176042 -0.11552604 -0.028062778 0.08180492
0002e0 7d 6e 0d be 68 ba 32 bc 9c 1b 8f bb 1a fd 64 3d
       -0.13811679 -0.0109087005 -0.004367305 0.05590544
0002f0 33 07 fa 3c 9e 8d d3 bd cd 12 a1 3d 77 a9 49 bd
       0.030521011 -0.10329746 0.07864914 -0.04923388
000300 cd 3a b5 bb 89 af 32 bd 95 43 a3 3c 18 7c 22 3d
       -0.0055306912 -0.043624435 0.019929687 0.039669126
000310 3a 5e a1 3d 18 83 f4 3d b7 17 a4 bd 57 30 e2 bc
       0.078793004 0.11939067 -0.08012336 -0.02761094
000320 c6 e3 02 3d 44 66 83 3d f1 04 bb bd fe e5 2c bd
       0.031955503 0.0641599 -0.09131802 -0.042211525
000330 db 99 f6 b9 21 f9 aa bd d9 fb d7 bd ed 1a a4 3c
       -0.00047035408 -0.08348299 -0.10546083 0.02003237
000340 d6 b1 e0 bc 72 db 18 bd 80 d0 04 3d 17 ed 3e bd
       -0.027428549 -0.037318654 0.032425404 -0.046612825
000350 b4 4e e8 bd 6d c3 9d 3d 87 58 46 3d 19 66 c5 bd
       -0.113431364 0.0770329 0.04842427 -0.09638614
000360 78 1f 16 3e c3 e8 19 bc 0e a7 9b 3a f2 4e ae 3c
       0.14660442 -0.009393874 0.0011875348 0.021277878
000370 1f 9a af 3d 98 c8 bd 3c 51 1a 52 bd 1f b3 8f 3d
       0.08574318 0.02316694 -0.05129463 0.070165865
000380 bb 88 8f bd 68 b9 4b bd fb e6 a2 3c 2a 3d 49 3d
       -0.07008501 -0.049737364 0.01988553 0.049130596
000390 f0 3b 21 bd 15 c6 14 be b6 4f 88 3d 3a ab 41 be
       -0.0393638 -0.14528687 0.06655829 -0.18912974
0003a0 c7 5c 7e bd 1f b6 f9 bc ac e2 07 3e 57 2f d4 3d
       -0.062100198 -0.03048235 0.13270062 0.10360592
0003b0 63 ec 9b 3c d0 ac 5b bd d0 8a 1e 3d 91 6c d5 bd
       0.019033616 -0.053631604 0.0387066 -0.10421098
0003c0 47 0f b2 3d aa 66 dd 3d 9f 67 47 3d fe db 86 bd
       0.0869432 0.10810597 0.048682805 -0.06584929
0003d0 d2 bb 75 bd 2f 91 fb bd 8d 9d 47 3c 25 d1 87 3d
       -0.059993573 -0.12283551 0.012183559 0.06631688
0003e0 98 81 26 3e b4 ec 12 be 28 1b b3 3b a7 11 1c 3d
       0.16260374 -0.14348108 0.0054658838 0.038102772
0003f0 17 52 c6 bd 5c 3c 68 bc 53 0d 8a 3d dc 7e 96 3c
       -0.09683626 -0.014174547 0.06740823 0.018371038

gnn.gnn_layers.1.res_connection.bias f4 [64]
000000 2f 5d 4c 3c 63 a6 2e 3c 7e 22 86 3d 33 3d 79 bc
       0.012473389 0.010659787 0.065495476 -0.015212345
000010 8b 28 3c 3d 67 6e 84 bd cd 66 b5 3c ba 40 b1 3d
       0.045937102 -0.0646637 0.022143746 0.08654924
000020 f4 74 b5 bd 14 9c 6a 3d 82 47 a1 3d bd c6 db 3d
       -0.08860198 0.057277754 0.07874967 0.10731266
000030 51 8a ad bd 17 fa 42 3d 19 ad f6 3d ef a2 c1 bc
       -0.084736474 0.047601786 0.120447345 -0.023637263
000040 60 a4 d4 bb 7f 49 d9 3d 8a fe ed bd 5f 21 8b 3c
       -0.0064893216 0.106097214 -0.11620815 0.016983686
000050 6d ce 98 3d c3 d9 9b bd 10 d5 af bd 7d c9 e7 3d
       0.074612476 -0.07609894 -0.0858556 0.11317728
000060 fa 9d 24 bd 45 3e ae 3c dc 35 bc bd 52 cb 95 bd
       -0.04018972 0.021269927 -0.0918996 -0.07314171
000070 05 01 b5 bd 28 be 87 3d 4f 89 84 bd 53 bc 94 bc
       -0.08838085 0.06628066 -0.06471502 -0.018156206
000080 b0 6f 52 3b a3 a6 2c bd eb eb e6 3c 9c a3 80 3c
       0.0032110028 -0.042151105 0.028188666 0.015703015
000090 b9 bf 8d 3c 30 e1 00 be 70 23 65 bd 9e 84 31 bc
       0.017303335 -0.12585902 -0.055942 -0.010834841
0000a0 e1 8c 88 bd fb 09 93 bd c3 75 8f 3d 36 f9 1c be
       -0.066674955 -0.07179638 0.07004883 -0.15329441
0000b0 7a bc 58 3a b1 c5 8c 3d 0e 15 de 3d 57 33 ab 3d
       0.0008267831 0.06873644 0.108438596 0.08359402
0000c0 eb 35 bd 3d c5 8f d0 3d de 09 70 bd 38 f2 95 bc
       0.092388 0.10183672 -0.05860316 -0.018303975
0000d0 07 63 eb 3b 64 5f 20 3d 0d aa bf 3d 35 71 d0 bd
       0.007183436 0.03915347 0.093586065 -0.101778425
0000e0 4b 37 09 be d7 a2 b1 3d 75 78 43 bd b0 6c a3 bd
       -0.13399999 0.08673637 -0.0477223 -0.07979715
0000f0 f7 b8 03 3e 79 e6 09 bc 96 b5 dd 3d 38 03 b2 bd
       0.12863527 -0.008416765 0.108256504 -0.0869202

gnn.gnn_layers.1.bn_layer.weight f4 [64]
000000 7c 57 77 3f 13 82 79 3f 09 12 75 3f f8 10 81 3f
       0.96617866 0.974641 0.95730644 1.0083303
000010 bf 45 80 3f 16 0f 80 3f b4 c7 76 3f 56 87 7a 3f
       1.0021285 1.0004604 0.9639847 0.97862756
000020 26 57 81 3f 72 83 86 3f b1 6f 7a 3f f5 d8 7f 3f
       1.010472 1.0508864 0.9782668 0.99940425
000030 26 f8 84 3f bd 4f 87 3f 50 77 80 3f 97 35 89 3f
       1.0388229 1.0571209 1.0036411 1.0719479
000040 83 45 83 3f 22 31 7f 3f 03 bb 84 3f a4 3b 88 3f
       1.0255588 0.99684346 1.0369571 1.0643201
000050 4a a6 7e 3f af 58 7d 3f 1d 90 79 3f f1 e0 7f 3f
       0.99472487 0.98963445 0.97485524 0.9995261
000060 52 91 84 3f 8d 37 80 3f db e5 7d 3f e0 fd 7d 3f
       1.0356848 1.0016953 0.99178857 0.9921551
000070 0c 7a 80 3f bf b0 7a 3f 2f c8 81 3f 82 9f 7f 3f
       1.0037246 0.97925943 1.0139216 0.99852765
000080 85 b5 7b 3f 69 1c 78 3f d6 27 83 3f 46 e8 7d 3f
       0.9832385 0.9691835 1.0246532 0.99182546
000090 eb 94 82 3f 21 2f 81 3f ee b3 83 3f 7a 58 80 3f
       1.0201696 1.0092508 1.0289285 1.0027001
0000a0 6a b2 7c 3f 14 12 80 3f 33 c2 70 3f c7 d5 74 3f
       0.9870974 1.0005517 0.94046324 0.956387
0000b0 03 6f 7f 3f 3a 79 7d 3f d2 f8 81 3f 21 2f 7a 3f
       0.99778765 0.990131 1.0154059 0.97728163
0000c0 12 45 7e 3f 3d 99 77 3f af 89 80 3f 74 ed 78 3f
       0.9932414 0.967182 1.0042018 0.97237325
0000d0 48 1a 82 3f e6 91 89 3f a7 c3 7f 3f 85 c0 80 3f
       1.016427 1.074765 0.99907917 1.0058752
0000e0 0f 4f 82 3f 4a 2b 82 3f 48 50 86 3f b9 6a 81 3f
       1.0180377 1.0169461 1.049325 1.0110694
0000f0 a7 ec 7c 3f 8a 1e 82 3f 2c e8 81 3f c2 ec 81 3f
       0.987986 1.016557 1.0148978 1.0150378

gnn.gnn_layers.1.bn_layer.bias f4 [64]
000000 d3 82 c5 bc f4 66 23 3d 17 c0 3d bd 39 ed 11 3d
       -0.024110233 0.039893106 -0.04632577 0.035626624
000010 10 3c 80 3c 74 f9 11 3d 45 a3 9c 3d 33 90 58 bd
       0.01565364 0.035638288 0.07648329 -0.052871894
000020 99 bc f2 3d ae 0b 9e 3d 62 0a 88 3d 48 26 84 3b
       0.118523784 0.077170715 0.06642605 0.004032884
000030 36 5d 37 3c 2e 95 ac 3c f4 3c 19 bc 7a 9f 5a 3d
       0.011191657 0.021067228 -0.009352911 0.053374745
000040 b9 80 80 3b d4 f3 b3 bc fe 17 78 3d 39 b0 9f 3d
       0.003921595 -0.021966852 0.060569756 0.07797284
000050 f6 f3 57 3d cf d4 da bc 98 9d 8f bd 6b 94 d4 bc
       0.052722894 -0.026712803 -0.070124805 -0.025949677
000060 c3 46 a6 bc 65 dd ab 3c da 2e 2b 3d 1f 0c 84 bc
       -0.020297414 0.020979593 0.041792728 -0.016119061
000070 08 4b 3c 3d 40 4a 73 bc 6b 66 7d 3d 02 db a9 bc
       0.045969993 -0.014849246 0.06186525 -0.020734314
000080 a8 ef 8b bc f5 51 1b 3c bd 13 8e bd 0c 16 17 bd
       -0.01708205 0.009479989 -0.069373585 -0.03688626
000090 58 aa d7 3c 72 31 15 bd dc 95 62 bd 36 9a 39 bd
       0.026326343 -0.036424108 -0.0553187 -0.045313083
0000a0 20 2a 16 3c fb 20 d7 bc 62 ff c8 3d 4c 52 64 bb
       0.009165317 -0.026260844 0.098143354 -0.0034839092
0000b0 d8 bb 9b 3c 0d 9a d2 3c 23 52 80 bb 54 74 ec 3c
       0.01901047 0.025708223 -0.0039160415 0.028864063
0000c0 77 15 ac 3c 06 19 c4 3c 5e 72 4b 3d bb 94 7a bd
       0.021006329 0.023937713 0.049669616 -0.061176997
0000d0 58 38 0a 3d e8 e2 06 bc cd 9b 24 3b 02 71 ef 3c
       0.03374514 -0.00823281 0.0025117279 0.029228691
0000e0 57 0b 88 3c a4 cc 4a 3d f3 0d 8c bc 65 e5 50 bc
       0.01660697 0.049511567 -0.017096495 -0.012750004
0000f0 04 ae 10 3d fb fb 52 3c d4 60 bc bc 94 f5 a2 bc
       0.035322204 0.01287746 -0.02299539 -0.019892491

gnn.gnn_layers.1.bn_layer.running_mean f4 [64]
000000 92 aa 31 3f 61 58 94 3f aa cd af 3f 76 9a 84 3f
       0.69400895 1.1589471 1.3734639 1.0359638
000010 35 d1 5b 3f a8 4e 75 3f e4 30 87 3f 22 30 b3 3f
       0.858661 0.95823145 1.0561795 1.3999064
000020 51 93 7c 3f c9 e9 08 3f e0 07 57 3f d8 12 8b 3f
       0.98662287 0.5348173 0.8399639 1.0865126
000030 20 15 31 3f a6 39 05 3f 4d 57 89 3f b3 39 73 3f
       0.6917286 0.5204109 1.0729767 0.9500992
000040 98 1e 6a 3f 5f 70 1b 3f 4c 46 49 3f ee 01 4c 3f
       0.9145293 0.6071834 0.7862289 0.79690444
000050 70 62 ac 3f aa 0a 66 3f c0 46 8b 3f 2e 80 4d 3f
       1.3467541 0.8986002 1.0880966 0.8027371
000060 ad 2f 03 3f 40 25 59 3f 1b 6f 5f 3f c6 f0 76 3f
       0.5124462 0.84822464 0.8727891 0.9646114
000070 d0 89 a7 3f ab 52 7a 3f 35 96 5e 3f 62 f6 9f 3f
       1.3088932 0.9778239 0.8694795 1.2497065
000080 07 51 7f 3f 48 d8 9d 3f 07 ec 40 3f d7 a2 6c 3f
       0.9973301 1.2331629 0.7536015 0.92435974
000090 05 6c 5b 3f 17 5b 48 3f 42 75 61 3f 66 41 46 3f
       0.857117 0.7826399 0.88069546 0.7744354
0000a0 00 30 88 3f da 2a 27 3f 76 da 81 3f db 77 75 3f
       1.0639648 0.6529976 1.0144794 0.9588601
0000b0 0a 0d 95 3f 5a c1 11 3f 92 7a 98 3f cf 5a 94 3f
       1.1644604 0.56935656 1.1912405 1.1590213
0000c0 b5 32 ae 3f d1 0d 82 3f 99 6a 66 3f 88 00 39 3f
       1.3609225 1.0160466 0.90006405 0.72266436
0000d0 e2 01 1c 3f 86 b7 74 3f 38 90 be 3f 28 5f 40 3f
       0.6094037 0.95592535 1.4887762 0.75145197
0000e0 64 52 0d 3f fd cc 35 3f f4 7c a8 3f 85 48 7d 3f
       0.55203843 0.7101591 1.3163133 0.9893878
0000f0 d1 c6 89 3f fe 70 4d 3f ab 3b 50 3f ca 6e 7a 3f
       1.0763799 0.8025054 0.81341046 0.978253

gnn.gnn_layers.1.bn_layer.running_var f4 [64]
000000 4a 18 51 3f c9 a3 01 40 e9 02 19 40 5e 59 a6 3f
       0.8167769 2.0256217 2.3908026 1.2996023
000010 e0 bc 86 3f 55 00 0d 40 43 81 f5 3f 2e 29 3e 40
       1.052639 2.2031453 1.9180073 2.9712634
000020 0e 47 5a 3f 44 c4 d7 3e c2 43 88 3f 49 75 ce 3f
       0.8526467 0.42141926 1.0645678 1.6129543
000030 4e e4 19 3f 30 48 f6 3e c9 29 92 3f 24 e9 68 3f
       0.6011399 0.4810195 1.1419002 0.90980744
000040 33 a4 8d 3f 34 64 cd 3e 5e 7b 3a 3f 44 e4 1e 3f
       1.1065735 0.4011551 0.72844493 0.62067056
000050 b6 50 02 40 c3 64 ba 3f 83 41 c2 3f 19 cc 69 3f
       2.0361762 1.4562 1.5176243 0.91327053
000060 3c 2e 4f 3f 3d d0 36 3f bc 8d 8f 3f d8 c3 47 3f
       0.80929923 0.71411496 1.1215129 0.7803321
000070 df 04 18 40 39 f0 82 3f 1b 88 ac 3f be 8f 2f 40
       2.3752973 1.022956 1.3479036 2.7431483
000080 a4 f0 52 3f ba a6 4b 40 64 16 34 3f a4 c8 53 3f
       0.8239844 3.1820512 0.70346665 0.8272803
000090 89 11 9b 3f 81 60 1e 3f a9 2e 86 3f b2 22 4f 3f
       1.2114726 0.61866003 1.048299 0.80912316
0000a0 95 c2 19 40 c9 cc 22 3f 79 96 db 3f 0c d2 d7 3f
       2.4025013 0.6359373 1.7155296 1.6860976
0000b0 39 7b 08 40 17 60 86 3f 71 4c b1 3f 23 fe 11 40
       2.132521 1.0498074 1.3851453 2.2811363
0000c0 34 88 12 40 dd 65 5e 3f 64 29 79 3f 45 a0 7a 3f
       2.2895632 0.8687418 0.9732878 0.979008
0000d0 d1 54 00 3f 88 98 9b 3f 0f c1 75 40 20 48 23 3f
       0.5012942 1.2155924 3.8399084 0.6378193
0000e0 03 a0 21 3f aa 2b 30 3f 6a 64 98 3f 89 c3 78 3f
       0.63134784 0.68816626 1.1905644 0.9717336
0000f0 5e 3e db 3f 62 d5 4f 3f 38 e7 28 3f ee 78 5a 3f
       1.7128408 0.8118497 0.6597781 0.85340774
